result/model/best_model.pt (torch_old, 49770 bytes, 11 tensors)

weight f4 [50, 1]
00000000: b8c8 b33c c11a 05be 81b2 a1bb deb2 d7be
00000010: 78e5 c13d 2b04 2fbe eb7d b2be 1e98 663d
00000020: fad6 f2bc bcfc ba3c 496e a3bc 7908 b9bd
00000030: 1ad1 36bd fce4 f73c db8e f03d e60a 473e
00000040: 264f f4be bcd3 40bd b1c2 12bf 885a 82bd
00000050: 2abd 8c3e 60fe 4fbd e490 4a3e 9077 4c3d
00000060: 7d22 4d3e 3aec 2bbe c4a6 a53d e6b4 bcbe
00000070: a796 693c 4e2b a03e 11cb 8cbe 8dd0 c73d
00000080: ace1 e2bd 3abd 033e 3108 8e3d c482 ea3d
00000090: a8e4 e1bd 2d99 e6bd fe93 6b3e f600 a3bc
000000a0: 7c89 3fbd de96 fcbe cff0 31be a865 1b3e
000000b0: b384 943e 9eff 88bb 258f 533e ca16 42be
000000c0: 601b 7cbc e559 3abd
0.021946296 -0.12998487 -0.0049346094 -0.42128652 0.09467596 -0.17091434 -0.34861693 0.056297414
-0.029643524 0.022825591 -0.019950049 -0.09034819 -0.04463301 0.030260555 0.117459975 0.19437751
-0.47716635 -0.047076926 -0.57328326 -0.06364924 0.2748807 -0.0507797 0.19781834 0.04991871
0.20032687 -0.16789332 0.08088449 -0.36856765 0.01425711 0.3128304 -0.27498677 0.09756575
-0.110782 0.12865153 0.06935156 0.11450723 -0.11029941 -0.11259685 0.23005673 -0.01989792
-0.046761975 -0.49333853 -0.17377017 0.15175498 0.2900749 -0.0041808626 0.20660074 -0.18954006
-0.015387386 -0.045495886

weight f4 [50, 1]
00000000: 5c5f 4b3f c453 1ebd 2567 d63d 0ed1 9fbc
00000010: 5684 5b3f 602c 593d 34fc dabc e01a b33e
00000020: e7ac 823e 94ae 003e 5b3d 8dbe aaa1 d33d
00000030: 68e0 ce3f 85d2 523f 3903 e03f 97d5 2f3f
00000040: f2b0 a43d d17f 7e3e 17b2 f2bd 9d64 093e
00000050: 72a3 603f f5ed 1e3e 454b 9e3e 518a 0140
00000060: 3e9c 303f 5319 dd3e 6797 763f c0f7 a73e
00000070: f6a5 863e e319 4c3f 2380 303e 36ee 683e
00000080: 9d38 e5bd 24cf 283f 9101 39bd bde3 a63e
00000090: e89c 9d3e 4b99 703e 01d5 623f af12 393d
000000a0: 8430 6b3f 8939 53be 90f2 6c3e 022e 9e3e
000000b0: f790 323f 1284 613d 1a33 473f 1763 d23f
000000c0: 2ffd f73f 7840 383e
0.7944238 -0.038654104 0.10468892 -0.019508865 0.85748804 0.053020835 -0.026731588 0.34981441
0.2552254 0.12566596 -0.27585873 0.10333569 1.6162233 0.8235248 1.7500983 0.6868529
0.08041562 0.24853446 -0.11850374 0.13417287 0.877494 0.15520461 0.309168 2.0240672
0.68988407 0.43183383 0.9632477 0.32806206 0.26298493 0.79727 0.1723638 0.2274712
-0.11192439 0.6594107 -0.04516751 0.32595626 0.30783772 0.23495977 0.8860627 0.045183834
0.91870904 -0.20627417 0.23139405 0.30894476 0.6975245 0.055057593 0.7781235 1.643649
1.937414 0.17993343

weight f4 [50, 1]
00000000: ffb4 533f 0792 113f e5b6 203e f58a 983d
00000010: cbef 503f 5728 2f3d 7209 b53c b270 953d
00000020: d6e6 963e ffc1 623d d01d 61be 367b 8bbd
00000030: 7326 9e3f 39e0 513f 64a9 9a3d 44e1 4e3f
00000040: 310f 043e 27e0 9b3e 2a82 21bf 0e90 3b3e
00000050: 2f7d 373e 05d7 43be 3c16 a73e fe32 ea3f
00000060: e3af 563f efb1 193f 9e6c 373f db56 bfbe
00000070: d86d 8a3e 2bf9 5c3f d4f8 813e 876a 223e
00000080: 6db0 cabd a125 413f b2ce 383e 1215 993e
00000090: 00a9 623e 7485 663e 8497 453f affe a43d
000000a0: 2e14 423f 6209 d2bd 9651 0c3e 54f6 a13e
000000b0: bc17 4c3f 3294 1f3d 809e 513f f229 583e
000000c0: 1a0e a83d 1ebd 313e
0.82698053 0.56863445 0.15694769 0.07448379 0.81615895 0.04276308 0.02209923 0.072968856
0.2947299 0.05536079 -0.21984029 -0.0681061 1.2355484 0.8198276 0.0755184 0.8081248
0.1289642 0.30444452 -0.6308924 0.18316671 0.17918848 -0.19124992 0.3263415 1.8296812
0.8386213 0.6003713 0.7165011 -0.37370953 0.2703693 0.863177 0.25385153 0.1586095
-0.09896932 0.7544804 0.18047598 0.29898888 0.22134781 0.22511846 0.7718432 0.080563895
0.7581204 -0.10255696 0.13702998 0.31633246 0.79723716 0.03895969 0.81882477 0.21109751
0.08205815 0.17357299

weight f4 [50, 1]
00000000: 9cbb 523e f87c 5c3e 2188 233f c696 793f
00000010: 87bb 523e d3d3 a33e ccc6 dd3e 3a15 12bf
00000020: 37fd 223e 7a33 e3be 39ec c73d 43a3 dc3e
00000030: 6da4 063f 0aa9 85be 007d fa3e ebc4 543e
00000040: ac93 7dbf 07c9 243e 6303 c0be 14ad 4b3f
00000050: 2b5f 30bf 978b 4f3e 5b6a 24be e973 18bf
00000060: ef39 60be 6418 913e 0939 7ebe 07a3 8a3e
00000070: a274 243e 079e 753e 372d e93e 11d6 1f3e
00000080: 3fd2 98be d49c 673e a67f d43d 7352 23be
00000090: 5340 243e 45de de3d d07c 583e aa60 ea3e
000000a0: 9d76 69be cd8a debe ec8a 1ebe bf83 243e
000000b0: dd5d 7b3e c1fe 8a3e e657 55be 16de eabe
000000c0: c0b2 dabf 9daa 0cbe
0.2057938 0.21532047 0.6387959 0.97495687 0.20579349 0.31997547 0.43315732 -0.5706364
0.15916906 -0.4437521 0.09761853 0.4309331 0.52594644 -0.2610553 0.48923492 0.20778243
-0.99053454 0.16092311 -0.37502584 0.7956097 -0.68895215 0.20268093 -0.16056196 -0.59551865
-0.218971 0.2833892 -0.24826445 0.27077505 0.16060117 0.23986064 0.4554231 0.15609004
-0.29847905 0.22618419 0.103759095 -0.1594942 0.16040163 0.10882238 0.21141362 0.45776874
-0.22799154 -0.43465272 -0.15482682 0.16065882 0.24547525 0.27147487 -0.20834312 -0.45872563
-1.70858 -0.13736959

weight f4 [50, 50]
00000000: d4ef 7c3d ebca 7dbd 7fb6 9fbd 5f06 52bd
00000010: f5a7 b8bd 052f 84bd fe23 26bd d303 c33d
00000020: 49e4 56bd ea4d c43d 0d39 05be adde 2ebe
00000030: 3b45 cbbd dc42 413e 6593 7fbc 4374 0ebd
00000040: 27a9 c13d b696 cbbc bf53 fabd 7b4a 36be
00000050: 73c3 4d3d e57e 96bd 0cc5 0d3e f323 8e3d
00000060: 6208 b03d 4648 f7bd 68fb aabd ce03 a83d
00000070: ed7b 36be 4425 38be 72a8 2bbe 4b07 bd3d
00000080: b12c b63c c56a 1cbe 0f09 3ebd 091d ab3d
00000090: da64 d7bd 6b4e 013e 1b16 d6bd 1acc 3dbe
000000a0: 97bb 3f3e 435b fbbd 0834 afbd e069 09be
000000b0: 3109 07bc aed4 903d df3e 423e fa1d 4abc
000000c0: 4a51 5b3d 169a 31bd 25ef 2fbd 64dd 863d
000000d0: dc76 b1bd fbdd 9abe 43df 13be 777f 8a3d
000000e0: 9af8 35be 557d 02be b675 3dbe 21a4 3b3e
000000f0: f962 8f3d f7b9 083d e8c2 35be 8d0b 9d3d
00000100: 6e19 b5bd 3737 60be fc55 993e e181 14bd
00000110: b486 75be 94f4 9abe 3daa ac3d 7b1d 14bd
00000120: 9baa 6b3e e31c 8dbb f2ca 183e f29d 07be
00000130: 6c20 483d b393 e1bc d05e 81bd 70d0 f7bd
00000140: 8fc2 903e ff7f 74be 7c48 0fbe b152 e0bd
00000150: 39b9 813d 7d49 3c3d 909c 7e3b 7eea 77be
00000160: 0542 9fbd e2f0 57bc 7ab6 433d 0f50 cf3d
00000170: 5356 893e ccb9 12be 4edc cfbd ffd8 c03d
00000180: f222 543e c118 ef3d 4d9d e1bd 4d71 f3bd
00000190: c993 d9bd 8d80 3bbc f592 40bd c241 40bd
000001a0: b3c2 3dbe 7809 28be 188c a2bd 2948 b5bd
000001b0: d717 c6bd c16c 17bd 8b6e ce3d 9915 c23c
000001c0: f344 1cbc 700e 35bd ced3 2abe 55bb 2abd
000001d0: 27fd 143e 16dc 2abe 006b 26be 5284 3dbe
000001e0: a233 1d3e ae1a c63d b6bb 90bb 680e 453d
000001f0: dfdf 183d 26b0 37be 33f8 133e a944 d73a
00000200: c4ed 51be c36d 32be 7bf7 f9bd 2534 813c
00000210: 0227 9d3d ae3e 483b 8670 b6bd 5300 e13d
00000220: 745b a1bd def9 47be e5e4 d73c 3558 063d
00000230: 2f85 f03d 800d f0bc 83de 343e 69f7 31be
00000240: 4ce0 813d 3544 c9bd c04b 5f3d 6070 2b3e
00000250: 34b2 0cbb 96d1 f63d 1201 0cbe 657a 153e
00000260: 5997 bebd 982c 95bd 7af7 62b9 4ca7 46be
00000270: ebf6 86bd 9d5b 20bb 8c4b 0dbe 4b62 683d
00000280: 4df9 343e 9c73 80bb 8d79 893d 5b8a cb3c
00000290: eb89 d3bd 3033 30bd 820d dc3c 86b3 0ebe
000002a0: 9b92 55bd 5be7 8fbd 3996 243d 9e10 aabd
000002b0: 1d16 b73d b7ae e63d 56b0 3f3e 0c21 34bd
000002c0: 3ef3 853d d09c dd3d a569 0ebe 9766 863d
000002d0: fca7 fb3a 4b55 5cbe 5a8e 1cbe 4168 debd
000002e0: 1970 a03e f0b5 543c 5dfe 5bbd 6090 abbe
000002f0: e661 aebd e6f0 efbd 3980 123d 3d00 d73d
00000300: 54c8 cd3d 6fab b83b 87d6 b0bc 3797 d1bd
00000310: 9fba 9a3d eacf 9c3d 92c6 963d d4db 9abe
00000320: 6ef2 15be 5b0e 12be efb4 6bbc 3edc 463c
00000330: 74b8 74be f5fb 233d 24cd a93b 7f08 d73d
00000340: 4d1a 013d ed03 6a3d e365 083d 23be 5abe
00000350: bd79 9abd 25eb 8a3d 5794 51be 6fa3 7bbd
00000360: cfca 723d d9bd 183c d769 dd3d 3385 64be
00000370: 24e6 893d 5cdb 32be 2995 3e3e 4b08 e53c
00000380: 08bd 563e 02de 33be bf9d ab3c fd82 c8bd
00000390: 1585 963c 6fd0 53bd 3be7 dfbd 099a 3dbe
000003a0: f319 a2bc e799 34be 571d bcbe 3887 0abd
000003b0: 7762 74be 4649 cabb fd32 e1bd f7e5 b1bc
000003c0: 6d50 183d ad29 4a3d f1e6 223e 6f6e b73c
000003d0: eecf 2abc 4296 d33d c634 173e 6a9e 1f3e
000003e0: ea49 393e 3097 2e3e 6ea2 2cbe 7f15 87be
000003f0: 8f76 88be 3189 70bd 5d66 92be 5f3b 16be
0.061752155 -0.061961096 -0.0779848 -0.051275607 -0.0901641 -0.06454281 -0.04056167 0.09522214
-0.052463803 0.095851734 -0.13010044 -0.17077132 -0.09925314 0.18873161 -0.015599106 -0.034778845
0.094560914 -0.024852138 -0.122230045 -0.1780185 0.050235223 -0.07348422 0.13844699 0.069404505
0.08595349 -0.12074332 -0.08348733 0.08203851 -0.17820711 -0.17982966 -0.16763476 0.09229907
0.022238107 -0.15275104 -0.046395358 0.083551474 -0.10517283 0.1262757 -0.10453435 -0.1853489
0.18723904 -0.12273266 -0.08554846 -0.13419294 -0.0082419375 0.070718154 0.18969296 -0.0123362485
0.05354432 -0.04335984 -0.042952675 0.06585196 -0.08665249 -0.30247483 -0.14440636 0.06762593
-0.17770615 -0.12743123 -0.18501934 0.18324329 0.070012994 0.033380475 -0.17750132 0.07668219
-0.08842741 -0.21896063 0.29948413 -0.036256675 -0.23977166 -0.30264723 0.08430908 -0.036160927
0.230143 -0.004306422 0.14921167 -0.13243845 0.048859045 -0.027536249 -0.06316912 -0.12100303
0.28273436 -0.23876952 -0.13992494 -0.10953272 0.063341565 0.04596852 0.0038850643 -0.24210545
-0.07776264 -0.0131799895 0.047781445 0.10122692 0.26823673 -0.14328688 -0.10149442 0.09416389
0.20716456 0.11674643 -0.11016331 -0.11886845 -0.10623891 -0.011444223 -0.04701515 -0.04693771
-0.18531303 -0.16409862 -0.07936877 -0.08851654 -0.09672516 -0.03696895 0.10079678 0.02369194
-0.009537923 -0.04420322 -0.1668236 -0.04168256 0.14549695 -0.16685519 -0.16251755 -0.18507507
0.15351728 0.096730575 -0.004416908 0.048109442 0.037322875 -0.17938289 0.14450149 0.001642366
-0.20500857 -0.17424683 -0.12205406 0.015771935 0.07673456 0.0030554938 -0.08908181 0.1098639
-0.078787714 -0.1952891 0.026354263 0.032798965 0.11744153 -0.029303312 0.17663006 -0.17379536
0.06341609 -0.098274626 0.0545156 0.16742086 -0.0021468522 0.12051694 -0.13672283 0.14597471
-0.09306211 -0.07283896 -0.00021645232 -0.19399756 -0.065900646 -0.0024468668 -0.1379835 0.056734364
0.17673226 -0.0039200317 0.06712637 0.024846246 -0.1032904 -0.043017566 0.02686191 -0.1393567
-0.052141767 -0.070265494 0.040182326 -0.08303951 0.08939765 0.11263793 0.1871961 -0.04397683
0.065405354 0.10820925 -0.13907488 0.06562536 0.0019199844 -0.21516912 -0.15288678 -0.108597286
0.31335524 0.01298283 -0.053709377 -0.33508587 -0.085147664 -0.117158696 0.035766814 0.10498092
0.10047975 0.005635671 -0.02158667 -0.1023392 0.075551264 0.07656844 0.07362093 -0.3024584
-0.14643261 -0.14263289 -0.0143864 0.012137471 -0.23898488 0.040035207 0.0051819254 0.104996674
0.031519223 0.05713265 0.03330029 -0.21361594 -0.07542751 0.067831315 -0.20466743 -0.06143516
0.059275445 0.009322607 0.10811203 -0.22316436 0.06733349 -0.17466491 0.18611588 0.027958056
0.20970547 -0.17565158 0.020949243 -0.09790609 0.018374005 -0.05171245 -0.109327756 -0.18515791
-0.019787764 -0.17636834 -0.36741135 -0.03382036 -0.23865686 -0.0061732857 -0.10996053 -0.021716101
0.037186075 0.04935615 0.1590841 0.022391526 -0.010425551 0.10331394 0.14766225 0.15587774
0.18094602 0.17049861 -0.16858837 -0.26383588 -0.26652953 -0.058724586 -0.28593722 -0.14671086

weight f4 [50, 50]
00000000: 4334 85bb d88c 61bc d645 8abc 1c24 24be
00000010: f8e7 54be 36fc 033e c0a0 8fbd 304b 3b3d
00000020: 4eb9 bfbd 1887 983d f455 813d 8ab7 26be
00000030: 38cc 28be 7bf7 bc3c aa49 5bbc ebc4 58be
00000040: 6264 183e 588e 71bb 5ab0 42be 0303 41bd
00000050: b92c 753d 7092 e7bd 73f1 063d fac0 bb3c
00000060: 2004 a93c 3149 23be edce 423e 0eae 143e
00000070: 1bfa 74bd da78 a2bd 6f25 dc3b 625a 1bbe
00000080: e858 2d3d 4873 e5bd c0a4 86bc 3896 8a3d
00000090: 17cb 5fbd 8ef7 72be 2835 10bc 90e8 62be
000000a0: a754 de3d 6d5e 563e 62d0 093e 80ee e0bc
000000b0: b2d0 6b3c f6d6 763b ad6f be3d ea0f 823d
000000c0: a46f 293e b95a 3fbe 3e47 80bd 91be 3dbe
000000d0: 7ffe 05be e878 b7bd b47d debd 1c85 23bd
000000e0: 7382 e8bd daf7 183e 467b 15bd 99ee fd3d
000000f0: ab9c 083e 409c dabd 4c79 75bc 872b 393e
00000100: dd43 aebd de67 2fbe abad 333e 1daa b3bd
00000110: e5dc 71be 6d89 14be 5d77 403e ee1d 06bc
00000120: b170 48bc 05a8 043e 37d6 443e 425f 52bd
00000130: f5f4 9e3d fdcb 5f3d 6afd 1fbd 9554 4dbd
00000140: 734f 54bd 29d4 72be 3d7c 77bd 3e39 dbbd
00000150: ef9c b6bd 8e77 3c3e 441c 043d a97d f4bd
00000160: 620d 89bd 1f9b 4bbe ce8e 383e fbe0 543e
00000170: c708 01bc a086 85bc 47c4 b03c 39be 1fbe
00000180: 37cd 343e 6ff5 713e 1b0f 3e3e 3c58 173c
00000190: 017a 8cbd a0d7 b33c bad9 8cbd 5f54 b1bd
000001a0: be2c 03bd 097a 84bc decc ce3d b447 0bbd
000001b0: a856 d63d 0e37 e73d 6e21 16bd de3b d8bd
000001c0: 648c 183d 28be 513c 3e39 b7bd ae4e 053e
000001d0: dfd3 12be f994 ca3d b3b1 8e3d 95b6 81bd
000001e0: 0261 9f3d 8ae7 023e 674b ad3c 1121 92ba
000001f0: e352 e53d c337 99bc 0f86 903d df8d 08bc
00000200: b9c1 7c3d f279 c4bd 7e4e 893d 7396 7bbd
00000210: 0d2e 5b3e e8e2 08bc cb6b d7bb 85cc 3bbd
00000220: 1bfd 59bd eac6 17bb d663 e63a e184 933d
00000230: 0642 d33d d25c f4bd 8da8 a5bd b1ba d63d
00000240: 3c62 babc e24c 2dbe bb80 bebd 3cb0 3dbb
00000250: 18eb 31bc 4555 b1bd 5152 4ebc fcf2 de3d
00000260: f3b8 933d 23dc ba3d 1f13 5a3d 52cb 64be
00000270: bb59 433e 11cf c0bd 794e 9fbb b50b 8cbd
00000280: b44d 22be 77f2 6f3e 1f0d 183e 275e 7dbe
00000290: b578 4b3e d5a7 8d3c 8779 64be 670e fa3d
000002a0: 01ca e13d 4e0e ee3d f9a9 2d3b ffbb c83d
000002b0: a320 0ebe 1139 c3bd c563 63be 6bd1 f23d
000002c0: 0e2f 39bd 8ce4 4bbe cd48 51bd 0791 573d
000002d0: af78 303d 6c17 7c3e b0bf 3fbd d45b b43d
000002e0: 4de3 123e f08e f0bd 1015 083e c208 063e
000002f0: 055e 0f3e 8e8f 713e 1c41 46bd ce38 1abe
00000300: 7c11 f4bc 9d8b 0f3e 3f6f 5a3e c587 6b3d
00000310: 6ffe 30be b4b8 59be 055a 9abd 0d14 06be
00000320: ea57 9fbd caf8 50bd 6b1c 76be f602 54be
00000330: 7a26 cebd ac32 e23d e6bf 6cbe 53a6 fe3d
00000340: 47ba bd3a 7ce7 ae3d 23a0 9b3c 8f83 5ebe
00000350: 39a6 3dbd b7c2 3b3e 1034 8dbe f086 17be
00000360: 46db 813d a87c 0fbe 8579 88bd 1ac4 7bbe
00000370: ff71 803e 1b53 35bb a617 13be d294 9c3e
00000380: 00fa 043e f0c4 64be a7d8 60bd 6276 b63d
00000390: f547 38bd 51e0 27bd 3afb 13bd 2e3f 05bd
000003a0: 02a6 07be 4628 23be 9f08 803d 1d52 0ebe
000003b0: f7cb 89bd 697c ea3b 3852 443c 89d4 19be
000003c0: c4dc 713d 63aa 543e 9f38 edbc 36ff 153e
000003d0: 85ab 693d 1880 d03d e74f ed3d 19f8 833e
000003e0: 88d9 d53e af39 573d 4d66 64bc 9789 2b3d
000003f0: bdb4 043e feae 583d 5e42 cf3d 2927 c4bd
-0.004065068 -0.01376649 -0.016879003 -0.160294 -0.20791614 0.1288918 -0.070130825 0.045726
-0.09361516 0.07447642 0.063152224 -0.16280952 -0.16484153 0.023067227 -0.013384262 -0.21168868
0.14882043 -0.0036858525 -0.19012585 -0.047122013 0.059857104 -0.113072276 0.032945108 0.022919167
0.02063185 -0.15945889 0.19024248 0.14519522 -0.05980883 -0.07933207 0.0067183296 -0.15171197
0.042321116 -0.11203629 -0.01643598 0.06766933 -0.05463704 -0.23727247 -0.008801736 -0.22159028
0.1085599 0.20934458 0.13458398 -0.027457476 0.014393019 0.0037664748 0.09298644 0.063506916
0.16546494 -0.18686952 -0.06263588 -0.18529727 -0.13085364 -0.08958608 -0.1086382 -0.039921865
-0.11353006 0.14938298 -0.036494516 0.123990245 0.13341014 -0.106743336 -0.014982533 0.1808301
-0.08509038 -0.17129466 0.17546718 -0.08772681 -0.23619421 -0.14505549 0.18795533 -0.008185847
-0.012233899 0.1295472 0.19222341 -0.051360376 0.077615656 0.054637898 -0.039060034 -0.05012949
-0.05183358 -0.23713745 -0.060421217 -0.107042775 -0.089166515 0.18404981 0.03225352 -0.1193803
-0.06692006 -0.19883393 0.18023226 0.20788948 -0.007875628 -0.016299546 0.021577967 -0.15599908
0.17656408 0.23628782 0.1856045 0.009237345 -0.06859208 0.021953404 -0.068774655 -0.08658671
-0.03202509 -0.016171472 0.10097669 -0.03400393 0.10465747 0.11289798 -0.036652975 -0.10558294
0.037243262 0.012801684 -0.08946465 0.13018295 -0.14338635 0.098916955 0.06967487 -0.06333653
0.07782175 0.12783638 0.021154119 -0.001114877 0.1119745 -0.018703347 0.0705682 -0.008334606
0.061708186 -0.09593572 0.06704424 -0.061422776 0.21404286 -0.00835488 -0.006574129 -0.045849342
-0.053219896 -0.0023159334 0.0017577361 0.07203079 0.10315327 -0.119317666 -0.08088789 0.10484827
-0.02275192 -0.1692386 -0.09301897 -0.0028944155 -0.010859273 -0.08658842 -0.012592868 0.10886189
0.07213011 0.09124019 0.05324089 -0.22343186 0.19077198 -0.09414495 -0.0048616496 -0.068381704
-0.15849954 0.23432337 0.14848755 -0.24742948 0.19870265 0.017291943 -0.22311984 0.12209778
0.11024857 0.11623822 0.0026499017 0.098014824 -0.13879637 -0.09532369 -0.22206028 0.118563496
-0.04521089 -0.19911402 -0.05109482 0.052628543 0.043083843 0.2461831 -0.046813667 0.08806577
0.14344521 -0.11746013 0.13289285 0.13089278 0.1400071 0.23589918 -0.048401937 -0.15060732
-0.029793493 0.14018102 0.213315 0.057502527 -0.17284559 -0.21261865 -0.07536701 -0.13093586
-0.0778044 -0.051018514 -0.24034278 -0.20704255 -0.100659326 0.11044821 -0.23120078 0.124340676
0.0014475071 0.08540246 0.018997258 -0.21729873 -0.0463011 0.18335997 -0.27578783 -0.14797568
0.06340651 -0.14012396 -0.06663803 -0.24586526 0.25086972 -0.0027667943 -0.1436449 0.3058229
0.12985992 -0.2234075 -0.054894116 0.089092985 -0.0449905 -0.04098541 -0.03612826 -0.032530956
-0.1324692 -0.15933332 0.06251644 -0.13898511 -0.06728356 0.007155944 0.011982493 -0.15022482
0.05904843 0.20768122 -0.028957663 0.14648136 0.05704834 0.10180682 0.11587506 0.2577522
0.41767526 0.052545246 -0.013940406 0.041879263 0.12959571 0.05290126 0.101200804 -0.09577782

weight f4 [50, 50]
00000000: 0ede 033e 4f49 453b 6cec 973d 85e3 7f3e
00000010: 623f 523d 9cdd ec3d b2f2 353c e3f2 2ebe
00000020: 9a2b 383e 0bd2 20be 6575 b33d 8788 07bc
00000030: 0332 613e 8ce2 1bbd 5746 7e3e c157 813c
00000040: 0189 8abe b387 293e 395e 6bbd 6d08 bf3e
00000050: ccb0 0cbe 4480 393e 9b19 3cbe 8357 3abe
00000060: 38f4 123d 8652 573e db0e 893c 4e0d e6bb
00000070: a405 9f3e d923 c8bc 2308 b13d 31d3 483e
00000080: 1217 14bc 8963 7e3e 9bba 00be 3ef7 34be
00000090: cf8a 61bd 903a 883e bcf6 9f3d 42fd 7c3e
000000a0: 92d2 a0bd 4d36 a3bc 60a4 77be 50b2 963e
000000b0: 93b9 863d 45c9 053e a218 33be d6b3 82be
000000c0: 2d18 6ebe 0a61 363e 8832 6b3d 1420 2f3b
000000d0: e70b f5bd 8ebe 08bc bd3a a1bd 2550 39be
000000e0: 23be ff3d 80cb 1f3c 5637 593d 1fee 6c3d
000000f0: afdb 79bd 3fc7 8fbd 35d1 88bd 867b 063c
00000100: 2bae 023e 60a2 4d3c aa9d 81bd b3ae 06be
00000110: cd73 463e 9c43 40be 108e 8e3d d807 87bd
00000120: f6cd 91bd b7c4 a63d 5d32 e23d 4c6e a0bd
00000130: 5680 263d 5faf 223d 1c65 d5bd 7d70 9dbc
00000140: 2a1d abbc 1d71 00be 6c69 933d 57d4 a93d
00000150: 2b33 03be bcfb 3fbb 809e c63d c240 d43d
00000160: fa5a 533d 37d0 0a3e 7ac8 353d 8bed 22be
00000170: 0437 0dbd a3f2 d03c 4db3 0fbe eafd 393c
00000180: fdd1 803b 219b bd3d 9c36 063e 4768 1c3e
00000190: 87f6 eabd 0c95 1e3d c408 d03d e1d2 aa3d
000001a0: 109c 873d ac24 8bbd 44a1 59bd 88e4 8c3d
000001b0: 5096 d43d 3ebd a23d 4b11 5fbc 15f9 cebd
000001c0: 545e d0bc f68a 823d 1f6e dfbd 58ed 0a3e
000001d0: 32c0 05be 732d 01be f9c6 67bd 8189 363d
000001e0: 9011 13be bf78 38bc 75c9 a1bd 6c6b 3bbd
000001f0: 0e77 08be 00bf d1bc 6000 36bc 36f4 37bc
00000200: acc0 c23c 427b cfbd 584f 03be 12e2 0e3e
00000210: 79bd a63d 9156 9c3d 4efa c03c 47a3 e7bb
00000220: 820b 8abd a697 953d 698b c83d 8423 143d
00000230: 804b 783d d51c 87bd 7db0 dd3d d1ca a53d
00000240: b7a5 bc3c 4322 903d c3a0 d7bc 02a8 4a3d
00000250: 3075 ee3c 951e f5bd 1946 f33d 2e1e 583d
00000260: 0906 88bd 9e54 c13d 2b6b 95bc c7ae 59be
00000270: 8a4b 0b3e 1acb 11bc 8317 f73d 0d4c 803d
00000280: 9305 f6bd 154a 76bc ff2f 453e 2a3d 4cbd
00000290: 44e3 003e 0559 153d 1bf3 0abe c22d eebc
000002a0: eff2 623e e764 433e fbe2 febd dafd c33c
000002b0: 7cee 24be 49e3 35bd b57b 63bd 1be4 d33d
000002c0: 3f21 883c 9b18 52be dcac 4bbd b020 ea3d
000002d0: 31de 81bd fc49 41bd d452 ea3d 3e72 2c3e
000002e0: e0d3 fcbd dede 203c 2a37 033e 75a7 423e
000002f0: 3e5d e83d 9d5c d73d ed3c d6bd 4c19 09be
00000300: 51b4 543d ff32 863d 8fce 403e 00de 25be
00000310: a79d 3ebe 5675 c7bd 430c 4d3d 2d92 3f3d
00000320: 9bb2 c13d 996e 713d e196 ac3e cd12 c73e
00000330: 464b 5e3e e7ea 29bd 485c b03e 360b 88be
00000340: 4fff 633e d204 5ebe 88dd 133e a109 403e
00000350: a873 673d acea 84be 7953 6b3e 38ed 833d
00000360: 9c9c d8be bc1c 533e 33c5 51bd 97ae 173f
00000370: fd8c 80be cc1e 793e 64a4 d338 d58e 24be
00000380: a3f5 77be 880c 553d 7cf0 873c ad17 9b3c
00000390: 0de8 603d 7019 63bc 7514 973e 7fdf 973e
000003a0: a33d 5bbd 6d34 353e a41c 11bc ebf7 74be
000003b0: 2680 553e b6a1 183e 5bab 623e 128d 403d
000003c0: f6e8 7fbe 9dbc 3abe 8b89 8cbe 7fa9 743e
000003d0: ac15 f33d af20 593e 3f4a 1bbe 78a5 5dbe
000003e0: 67a4 46be e5e2 573e ff99 723c 761f ae39
000003f0: 7a0f 7d3e a06f b93d d3bc 623c 0175 10be
0.12877676 0.003010351 0.07418141 0.24989136 0.051329978 0.11565706 0.011105226 -0.17084841
0.17985383 -0.15705125 0.087626256 -0.008272297 0.21991734 -0.03805785 0.2483152 0.015788915
-0.2705765 0.16555671 -0.057462905 0.37311116 -0.13739318 0.18115336 -0.18369143 -0.18197446
0.035877436 0.21027574 0.016730716 -0.007020629 0.3105899 -0.024431156 0.0864413 0.19611813
-0.0090387035 0.24842657 -0.12571184 -0.1767244 -0.05506402 0.2660718 0.07810733 0.24705985
-0.07852663 -0.019923354 -0.24183798 0.29432917 0.06578364 0.1306506 -0.17489865 -0.2552783
-0.2325141 0.17810455 0.057421237 0.0026722 -0.11965161 -0.008346213 -0.078725316 -0.18096979
0.124874376 0.009753108 0.053031288 0.057844277 -0.061000522 -0.07020425 -0.06680528 0.008208161
0.12761752 0.01255092 -0.063289 -0.1315258 0.19380112 -0.18775791 0.0696069 -0.06593293
-0.07119362 0.08142989 0.11044762 -0.078335375 0.040649734 0.03971803 -0.10419676 -0.019218678
-0.02088793 -0.1254315 0.07197842 0.08292454 -0.12812488 -0.0029294332 0.096982 0.10363914
0.051600434 0.1355599 0.044380642 -0.15910928 -0.034476295 0.025506323 -0.14033242 0.011352042
0.0039312826 0.09258104 0.1310677 0.15274154 -0.114728026 0.03871636 0.10157922 0.08341003
0.066215634 -0.06794104 -0.05313231 0.068795264 0.10380232 0.07946251 -0.013614963 -0.101061024
-0.025435604 0.06374161 -0.10909676 0.13567102 -0.13061598 -0.12614994 -0.05658624 0.044564728
-0.14362168 -0.011259257 -0.07899753 -0.045756742 -0.13326666 -0.025603771 -0.011108488 -0.011227658
0.023773514 -0.101309314 -0.12823236 0.13953426 0.08141608 0.07633699 0.023556855 -0.0070690247
-0.06740476 0.07304315 0.097922154 0.036166683 0.060618877 -0.06597296 0.10824678 0.08095325
0.023028238 0.07037785 -0.026321774 0.04947663 0.029108614 -0.11968724 0.118786044 0.052763157
-0.06641776 0.094399676 -0.018239578 -0.21258079 0.13603035 -0.008898521 0.120650314 0.062645055
-0.12012782 -0.015032311 0.1925659 -0.049863018 0.12586695 0.03646185 -0.135693 -0.029074553
0.22162984 0.1908146 -0.12445637 0.023924757 -0.161066 -0.04440621 -0.055537898 0.10346242
0.016617415 -0.20517199 -0.0497254 0.11432016 -0.06341208 -0.047189698 0.114415795 0.16840455
-0.123450994 0.009818761 0.12814012 0.19009192 0.113459095 0.105157115 -0.104608394 -0.13388556
0.051929776 0.065526955 0.18828796 -0.16197968 -0.18614827 -0.09739177 0.05006052 0.046770263
0.094578944 0.058943365 0.3370886 0.3888153 0.21708402 -0.041483786 0.34445405 -0.26571053
0.22265361 -0.21681526 0.14439976 0.18753673 0.056506783 -0.2596029 0.22981061 0.0644173
-0.42306983 0.2061643 -0.051213454 0.5925078 -0.25107566 0.24328154 0.00010091884 -0.16070111
-0.24214797 0.052013904 0.016594164 0.018932188 0.0549088 -0.013861045 0.29507795 0.296627
-0.05352558 0.1769578 -0.008856926 -0.23922698 0.20849666 0.14905438 0.2213568 0.047009535
-0.24991211 -0.18236013 -0.27448687 0.23892783 0.11869368 0.21203874 -0.15165041 -0.21645153
-0.19398652 0.21082647 0.014807223 0.00033211306 0.24712935 0.09054494 0.0138389645 -0.14107133

weight f4 [50, 50]
00000000: 9f5b 0fbe b33e 00be 18e5 1b3d a12c 20bd
00000010: 9b52 0c3d dcc9 69bc 665a 043c b095 dabd
00000020: 1e93 c7bd 5ac9 c53d 355d a53d 66f0 0fbe
00000030: 46e2 d83c 0edf c03c 02fc 65bd 0b4d 1cbd
00000040: a4ec 5b3d cacf 353d 17a7 6e3d 6ee7 90bb
00000050: e9c3 533b 1d1f 0dbd b1cb 923d 35f9 2d3c
00000060: 6e4a f2bd 109b 9f3c 107d 853c 971e dc3d
00000070: 91cf ae3b e55d 8abd aa95 f6bd 3c0a 80bd
00000080: 39c9 e6bb a10e 0abc 8880 02be 4b46 24be
00000090: 893a 7cbb 7419 97bc c006 c93c eac3 09bd
000000a0: cd23 86bd 994b 3dbd d079 dfbd 0001 093e
000000b0: 36db dbbd b277 293e c9af a0bd 41f6 71bd
000000c0: 6b80 513d fbf9 b3bd ad4a a7bb 2927 58bc
000000d0: 6b32 cf3d 299c a93c c6c5 4dbd 42eb 723d
000000e0: 0472 3ebd 3fe1 663e 9f6c 2f3e 519e 9bbd
000000f0: e791 903c da1a 143d 378b fe3d 8ba1 993d
00000100: 039b 3a3c 58ce b3bd feab 9bbd e146 c43d
00000110: c5eb c1bd 9352 803c 272b 103d 765d 113e
00000120: 9490 bcbd f502 d0bc 2807 a93d de62 e73d
00000130: 58c9 6ebc d2bc 143d 3f71 383d 2d35 233e
00000140: 7fc1 3abe 9856 223e faaf c9bc 5dad bd3c
00000150: 9426 81bd cbb3 713c 6305 82bd 1231 6f3d
00000160: cfb4 9cbb 01f9 1a3e 073b 303c 9300 07bd
00000170: 4b67 f9bb c946 cc3d 5339 0f3e 007f a63d
00000180: 4a3b 793d 056b 5ebd b315 733e 56e5 123e
00000190: 0b2d eabd c917 b8bd 3384 09be 378e 913d
000001a0: 03f0 1d3c 8102 d8bc b4e6 12be 8d6d 533e
000001b0: bbe7 1c3e 4ad7 813e 9710 14be d753 5fbd
000001c0: 8d0d 0c3d dc37 92bd 692a cdbb aa8a 2e3c
000001d0: f1b0 413e 8d51 17bc d409 7fbd 92a1 74be
000001e0: 7cab df3d a0c5 6b3d 1e3f bbbd 6cec c23c
000001f0: 239a eb3d e126 883d 3234 ee3d 4211 423e
00000200: d2ca 06bd fba9 183e 9882 6fbe 9937 05be
00000210: fc8c 29be 2ef9 fe3a ede9 0c3d 9349 aabd
00000220: 1668 fc3d 1f4e 1ebe ef4d 063e 12dc 1cbe
00000230: 0218 403b d4be d53d c4a8 483c 73c6 fa3d
00000240: f420 cf3d a2f5 053c 2306 a1bc 7c31 9c3c
00000250: 549c bf3e 0650 0d3e 732f df3d 4c7f 823e
00000260: 21b9 733d 10eb 67bd eb95 a8bd 5b4d b13d
00000270: 3eff a9bd a1a7 f83c 783c f53d 460f 30bc
00000280: ffc2 aabd be75 873d fb17 2cbe c8ff cf3d
00000290: d4a5 d2bd d70a 7c3d b62f 83bd ed60 98bd
000002a0: 500f 2e3d 5d0b 47bd 0661 333d 9bae 8a3d
000002b0: c6ff 82ba de67 193e 1dbc 883d bb26 303d
000002c0: e85e 4ebc 019d 993d 59bf 93bd a41c 99bd
000002d0: a11d c7bd c26e 13be 469b 9cbd 2ebc 853d
000002e0: c682 2d3e cdad e1bd ddc5 a63d 6f38 16be
000002f0: e4fe ff3d ff55 37bd 4e11 8dbd ebdd 81bd
00000300: d069 b93d efdd 28bd 145a e33d 244e 87bd
00000310: e32e 8fbd 73bd aebd f36a b23e 44e3 16be
00000320: 959d 393d 82a3 083c c886 a9bc ebfd 6b3c
00000330: 3704 81bd 3f7d 053c 40f5 3fbd b108 f33d
00000340: bf18 053e 5653 92bd c791 233d 7a48 c23d
00000350: 4ad5 de3a 67ec 943d 0853 70bc d0b4 5e3d
00000360: c8ac 30bd 4e9a 263e 38b5 87bb 561b f1ba
00000370: c79d ecbc cda7 ec3d ac62 05be 989b 773d
00000380: 3937 0ebe 350e 683d ac7b f83d 8170 89bd
00000390: 84c0 7d3d c1ad 9f3d c683 8bbe 0ddd bd3b
000003a0: e5bb a8bd 6fdb 9cbc 0f8c 72bb 2f41 b9bd
000003b0: fdda 7b3d dece cc3d a65a c53d 4eb9 993d
000003c0: 05ee 47bc 3f3b c73d 6921 d83d 3363 d3bd
000003d0: 7651 cb3d 70c3 8ebd 777f bd3c 8ba9 9e3d
000003e0: 9fed ef3d 2e0d e73d 9400 b83c de22 9ebd
000003f0: 30b2 d3bd e287 d4bd fdac 05be 0b74 9d3d
-0.13999794 -0.12523918 0.038060278 -0.03910506 0.034258466 -0.014269318 0.008078193 -0.10673082
-0.09744857 0.096575454 0.080744185 -0.14056548 0.026475083 0.02354386 -0.056148537 -0.03815941
0.053692475 0.044387616 0.058264818 -0.00442212 0.0032312816 -0.0344535 0.07167757 0.010618498
-0.118306026 0.01948312 0.016294986 0.10748022 0.0053348024 -0.0675619 -0.12040265 -0.06251952
-0.0070430306 -0.008426339 -0.12744343 -0.1604244 -0.0038487038 -0.018444754 0.024539351 -0.033634104
-0.06549797 -0.046214674 -0.10911906 0.13379288 -0.107351705 0.16549566 -0.07846028 -0.059072737
0.05114786 -0.08787914 -0.0051053376 -0.01319293 0.10117038 0.020704346 -0.05023744 0.05930639
-0.046495453 0.22546862 0.1713128 -0.07598556 0.017647697 0.03615842 0.12428897 0.07501515
0.011389497 -0.08779591 -0.07601164 0.095838316 -0.094687976 0.015664374 0.035197403 0.14195809
-0.092072636 -0.025392035 0.08253318 0.11298154 -0.014574371 0.036312886 0.045029875 0.15938254
-0.18237875 0.15853345 -0.024620045 0.023153955 -0.06306186 0.014752339 -0.06348684 0.058396406
-0.0047822963 0.1513405 0.010756261 -0.032959532 -0.0076111904 0.09974439 0.13986711 0.08129692
0.060847558 -0.05430128 0.23738746 0.14345297 -0.114343725 -0.08988912 -0.13429336 0.071072035
0.009639743 -0.026368381 -0.14345819 0.20647259 0.15322773 0.25359565 -0.14459454 -0.054523315
0.03419261 -0.071395606 -0.006261159 0.010653177 0.18915154 -0.009235752 -0.062265232 -0.23889759
0.1092138 0.057561517 -0.09142898 0.023794375 0.115040086 0.066480406 0.11631049 0.18951896
-0.03290827 0.14908592 -0.23389661 -0.1300949 -0.16557688 0.0019452923 0.034402777 -0.083148144
0.1232454 -0.15459488 0.13115667 -0.15318325 0.0029311185 0.10436788 0.012247268 0.122448824
0.10113707 0.008176239 -0.019656247 0.019066565 0.37423956 0.13800058 0.10897722 0.25487745
0.059502725 -0.056620657 -0.082317196 0.086573325 -0.08300637 0.03035337 0.11974424 -0.010745829
-0.08337974 0.066142544 -0.16806023 0.10156208 -0.102855355 0.061533775 -0.064055845 -0.07440362
0.042495072 -0.04859482 0.0437937 0.067715846 -0.0009994439 0.14981028 0.06676505 0.043005686
-0.01259587 0.07500649 -0.07214231 -0.07476166 -0.09722448 -0.1439772 -0.076468036 0.06530033
0.16944417 -0.11019478 0.08143208 -0.14669965 0.124997884 -0.044759747 -0.06888066 -0.063411556
0.09053385 -0.041227277 0.111011654 -0.06606701 -0.06991365 -0.08532228 0.3484722 -0.14735132
0.045316298 0.008339765 -0.020694152 0.0144038005 -0.06299632 0.008147537 -0.046864748 0.11866892
0.12997721 -0.07144801 0.039933946 0.0948648 0.0017000821 0.07271653 -0.014668234 0.054371655
-0.043133527 0.162698 -0.004141476 -0.0018394988 -0.028883828 0.11555443 -0.13025922 0.06045112
-0.13888253 0.056654174 0.121329635 -0.067109115 0.061951175 0.07796813 -0.27248973 0.0057941736
-0.08238963 -0.019147603 -0.003700975 -0.09045636 0.06148814 0.10000394 0.096364304 0.07506047
-0.012202744 0.09728097 0.105532475 -0.10321655 0.09927647 -0.069708705 0.023132069 0.077471815
0.117152445 0.11281811 0.022461213 -0.07721494 -0.10336721 -0.1037748 -0.13054271 0.07688149

state f4 [50]
00000000: a6fa 7f3f 362a fe3c ca05 f93e 1c17 633f
00000010: aafe 7f3f e6fb 633f 5b3d 4a3f d63d babc
00000020: 0ebf b43e 5071 53be ff62 0938 3815 f33d
00000030: 32ff 7f3f 67f1 7fbf 22a9 2a3f 2ce1 7f3f
00000040: 8e5b 3fbf 4a4f d93e c7cc 94bd ca61 783f
00000050: 52f0 25bf 5abd 453d 131b ebbe feff 7fbf
00000060: a1e4 7fbf 62ea 7f3f d0a5 79bf 7c9c 5d3e
00000070: 9661 cc3e 7bc0 7e3f 23f8 093f 5bfc 003f
00000080: 6735 5fbf 90e9 7f3f 0f3d 76bb fe36 0fbf
00000090: f7ac ba3e 9a70 2d3f 14ff 7f3f de28 383f
000000a0: c044 7abf 0b73 e5be f7ad 1ebf ff9a 1b3f
000000b0: 63c7 7f3f f76e 293f d2fd 7fbf 4342 4abf
000000c0: 1343 15be 5b0d a8bc
0.99991834 0.031025987 0.4863723 0.8870714 0.9999796 0.8905624 0.7899987 -0.022734564
0.35302013 -0.20648694 3.2755543e-05 0.118692815 0.9999877 -0.99977726 0.66664326 0.9995296
-0.74749076 0.42443305 -0.07265621 0.97024214 -0.64819825 0.048276283 -0.45919093 -0.9999999
-0.99958235 0.99967015 -0.97518635 0.21641725 0.39918202 0.9951245 0.5389425 0.50385064
-0.8719086 0.99965763 -0.0037573015 -0.55943286 0.36460087 0.6774994 0.99998593 0.7193736
-0.97761154 -0.44814333 -0.619842 0.6078338 0.99913615 0.66184944 -0.99996674 -0.7900736
-0.14576368 -0.02051418

cell f4 [50]
00000000: 4b57 863f e226 063d 725c 1b3f 5f95 763f
00000010: 0390 893f 7d15 6d3f 53ff 653f 581b 5ec2
00000020: 7a70 383f ac43 bdc0 b8e2 333b fa75 f73f
00000030: bdb6 0542 db4b 84bf 9245 a641 e9a8 963f
00000040: 2dff 6bbf 59e8 443f 032e 80bf ba03 813f
00000050: 56b2 a0c2 f639 c340 98a9 55bf 85e5 3bc2
00000060: f336 8abf 63e4 2641 0ba6 79bf b140 813f
00000070: 3afc 153f 9447 853f ed13 4d3f 0f84 1e42
00000080: de59 65bf 7092 913f caf6 cdbc 5dd9 46bf
00000090: 7045 c83e 49ce 2540 79e6 963f d01b 3841
000000a0: b645 7abf 2ce1 31bf 915d 9fbf 7c25 5e3f
000000b0: d092 a63f b542 393f a763 a7bf bc67 97bf
000000c0: b370 34c1 95e3 a3bd
1.049539 0.032751925 0.60687935 0.9632167 1.0747074 0.92610914 0.8984272 -55.526703
0.72046626 -5.9145107 0.0027448367 1.9332879 33.428455 -1.0335649 20.78397 1.1770297
-0.9218624 0.76917034 -1.0014042 1.0079262 -80.34831 6.1008253 -0.83461905 -46.97414
-1.0798019 10.430758 -0.97518986 1.0097867 0.5858799 1.0412469 0.8010853 39.628963
-0.8959025 1.1372814 -0.025142092 -0.7767542 0.39115477 2.5907156 1.1789085 11.50679
-0.9776262 -0.6948421 -1.2450429 0.86775947 1.3013554 0.7236741 -1.3077286 -1.1828532
-11.277514 -0.08002392

weight f4 [1, 50]
00000000: d7d1 05bf 954c 2dbe ce7b d93e fae0 da3e
00000010: 4142 1abf f2a1 dd3e b4f0 673e f512 90be
00000020: 00e9 ad3e 54ff a9be 982e 183e 4787 4e3e
00000030: a209 123e bd92 da3e 5b9d b13e 70df e2be
00000040: 79f2 a8be 2f8e cb3e faf9 613e 43e7 163f
00000050: ab78 72be 07b3 68bd ff1d acbe 563c 62be
00000060: a2cb e33e f06e 2bbd 04f8 083f c8b7 5cbe
00000070: a540 ee3e c29e 13bf c4f9 333f c7fa c33d
00000080: 509f b1be 35a6 a6be 7c2f ca3d 75a7 e4be
00000090: 3af0 9f3e d510 3a3e 8ae0 14bf 14de 273e
000000a0: 65d5 fa3e e33c 07be a450 4bbe 39f2 f53e
000000b0: dde4 b0be e319 a83e be37 e03e b73f 5cbe
000000c0: afed 08bf 3540 1fbe
-0.52273315 -0.16923745 0.42477268 0.42749768 -0.60257345 0.43287617 0.22650415 -0.28139463
0.33966827 -0.33202612 0.14861524 0.20168792 0.14261487 0.42690077 0.34690365 -0.44311094
-0.32997492 0.39756915 0.22068015 0.5894663 -0.23678844 -0.05681136 -0.33616635 -0.22093329
0.44491297 -0.041853845 0.5350344 -0.21554482 0.46533695 -0.5766412 0.7030299 0.09569316
-0.34691858 -0.3254868 0.09872338 -0.4465901 0.31237966 0.18170483 -0.5815512 0.1639331
0.48990932 -0.1320682 -0.1985498 0.48036364 -0.3454961 0.3283225 0.43792528 -0.2150868
-0.53487676 -0.15551837
