stock_predict/best_model.pth (torch_old, 53233 bytes, 9 tensors)

rnn.weight_ih_l0 f4 [128, 1]
00000000: b228 743f e0ed 9c3f 918e 363f df8d 273f
00000010: e88e 69c0 fd8d 0cc0 5d48 2bc0 5f3d f73e
00000020: 1c73 dabf 3cd1 6840 d022 9d40 3e15 523f
00000030: 1f9c 0241 bafe 7c40 be3f 4d3f f916 babf
00000040: e5c7 62c0 934a 513f 8689 9c3f cbbd 6c3f
00000050: c393 1b3f 7b48 ef3e c7df 0141 b215 2b3f
00000060: c923 7c40 ec2f d2bf 992b 4c3f e5df 4f3f
00000070: 267c 3040 a2ca f83e ba03 b8be 85eb 7840
00000080: 1447 dc3e d11a fe3e 5ba4 1a3f c7f5 c53e
00000090: 856e 48c0 05bc d8be cefd 40c0 2911 013e
000000a0: 52a5 c1bf 7166 d33f 2cd3 8640 99bc db3e
000000b0: fb37 ae40 e32b 3240 44a8 243f 194c 6cbf
000000c0: 2509 22c0 e7dd 453f 6449 233f 782e d73e
000000d0: 4866 ff3e 22ad 0e3f df78 1940 9e1c 623f
000000e0: 87cd 9440 75d2 f83e 4896 b13e 76ab 003f
000000f0: 4bc6 9b3f 6a15 243f f525 a9be ccbc 5240
00000100: 972f 5bbc 99b1 7a3d 5503 073f da93 083f
00000110: 8f30 0d40 d048 8abe fd7e 1240 3e05 26bf
00000120: 2f32 6a3f 3d62 383f 63a3 6fbf 59de 0a3f
00000130: 2d44 74c0 4e67 b8be fb51 ee3e 0952 033f
00000140: 27dc 423f 567d 273e 9b10 d43e 9e6b f5be
00000150: c80f f4be 1c61 35bf 726e 19bf 6ee2 6ebf
00000160: 0ea8 c6be 2ca9 863e bbfc a93e 499f d43e
00000170: 2212 323f c2f7 f3be ff5b 91be 47a4 1abf
00000180: 58c9 5d3f aac2 203f d0e6 843e 6fc1 333f
00000190: 61d3 8ac0 b3f4 84c0 7135 4fc0 71b3 df3d
000001a0: a727 d9bf 9ec0 b440 f6d0 a440 616a 513f
000001b0: 2304 f640 ecc1 bb40 bbf6 673f e7dc d7bf
000001c0: 2745 a1c0 520b 673f 5b0c 1c3f 73b2 543f
000001d0: 2fe8 513f 2ba7 e53e bc54 ee40 bea4 f23e
000001e0: d2f3 9040 102c e6bf cff2 cf3e b5dc 2f3f
000001f0: 3bff 3340 33f4 253f 35df 1ebf 8ae4 8340
0.95374596 1.2260094 0.7131129 0.65450853 -3.6493473 -2.1961663 -2.6762917 0.4828901
-1.7066379 3.6377707 4.9104996 0.82063663 8.1631155 3.9530473 0.8017539 -1.4538261
-3.5434506 0.81754416 1.2229469 0.924771 0.6077234 0.46734986 8.117133 0.6682998
3.9396842 -1.6420875 0.79754025 0.8120101 2.7575774 0.48592097 -0.35940343 3.889375
0.43022978 0.49629834 0.60407037 0.38664076 -3.1317456 -0.42330948 -3.015491 0.12604202
-1.5128577 1.6515638 4.213278 0.42917326 5.4443336 2.7839286 0.6431925 -0.92303616
-2.5318081 0.7729172 0.6378386 0.4202764 0.49882722 0.5573293 2.3980024 0.88324916
4.650089 0.48598066 0.34684968 0.5026163 1.2169889 0.64095175 -0.3303677 3.2927732
-0.0133780455 0.061204527 0.5273946 0.53350604 2.2060888 -0.27008677 2.2890007 -0.6485175
0.91482824 0.720249 -0.93608683 0.54245526 -3.8166611 -0.36016315 0.4654692 0.5129705
0.76117176 0.16356406 0.4141892 -0.47933668 -0.4766829 -0.708513 -0.5993415 -0.93314254
-0.3880009 0.26300943 0.3320063 0.41527775 0.6955892 -0.47649962 -0.283905 -0.6040692
0.8663535 0.62797034 0.25957346 0.7021703 -4.338303 -4.1548705 -3.2376368 0.109228976
-1.6965226 5.648513 5.150508 0.81802946 7.688005 5.867422 0.90610856 -1.6864289
-5.0396914 0.9025165 0.6095635 0.8308479 0.8199491 0.44854102 7.4478436 0.47391313
4.529763 -1.7982197 0.40614936 0.6869615 2.812453 0.64825743 -0.62059337 4.121648

rnn.weight_hh_l0 f4 [128, 32]
00000000: 5f39 ee3e bfe3 a6be 35d2 c1be a894 f3be
00000010: f365 3f3f e9d5 0dbf 913b c63e e6f1 003f
00000020: 7ad5 3f3e e14f 81bf 56b7 123f 50b5 15bf
00000030: b909 f33e bbc0 403f 0887 02bf 5c02 8b3e
00000040: 0db4 c93e c7d5 0dbf c8b0 fbbe 7d98 b63e
00000050: 5ab7 df3e 8f0d b33e 555f ee3e 0ca1 9d3e
00000060: 2d50 003f f4d4 b0be 3d0e 0bbf 9a39 0dbf
00000070: dc88 ecbe 4c8c 863e c957 90be bbb3 563e
00000080: 39bf 0dbf e6e3 f53e 63a9 c33e 8033 633f
00000090: 673a e8be 044b a73d 5dd7 17bf cda4 28bf
000000a0: f48d 1dbf c936 143d 1279 b0be 78e8 4b3f
000000b0: 138f 473f 2680 f6be 0900 4e3f 6fa7 e5be
000000c0: 9af9 ccbe 2241 3a3f 6e53 403f f9d5 37bf
000000d0: 5611 14bf 5ea7 26bf 6f7f 07bf 5d46 56be
000000e0: c5c5 03be da0b 9c3e de00 493f 3331 603f
000000f0: a530 e93e f884 15bf 6d23 a23e 6eb1 9f3e
00000100: f2f9 df3e b78a 53bf 1efb bdbe ad3a f3be
00000110: 9d15 163f c31e 5bbf 0337 323f 7127 083f
00000120: c667 e43e 016b ecbe 8caa 023f dec4 bcbe
00000130: d548 833e e175 463f 1c87 edbe 61b2 d23e
00000140: 9ddf 513f 5aac 15bf a68e bdbe 204d f63e
00000150: 11a9 853e d6c0 003f 898f ae3e b85f 1e3f
00000160: 479a b53e 011d b6be 99b9 08bf 3f5e 90be
00000170: ea02 d1be e1cb b03e 0abe febe 0d0c 943e
00000180: ec48 853e ca40 4ebf 57f4 bfbe 0408 acbe
00000190: d716 233f 0052 74bf d343 393f 15ae 0a3f
000001a0: 1f3c 1a3f 7fd4 47bf 9ab5 373f 7f7c 12bf
000001b0: 648f 053f 480d 543f 9fb4 8cbe e22f 163f
000001c0: 45d1 663f 3bcd 12bf d1a0 a9be 4393 063f
000001d0: 0f4d e03e 4288 dc3e 9d6e 223f c231 073f
000001e0: dc44 f23e f1ff 2cbf 1f76 13bf 00c8 b0be
000001f0: 609d 41bf 06aa c73e c418 ecbe 0579 8b3e
00000200: 213e aebe 2e74 bc3e 617a 043f a4f8 043f
00000210: f45f b33e b26a 09be 4c9f aa3e 3f5c 1fbf
00000220: 43c8 8fbe f9e8 1d3e fe3a 0bc0 4937 993e
00000230: f580 1ebe 7614 26bf b2e5 043f 0310 8cbf
00000240: c803 d73d 7d32 f03e b3ae 203f 46ca 14bf
00000250: 44fc 04bf 5f47 bebe f43c 23c0 f94d debf
00000260: b706 ffbf fd1e 633f bb60 093f 35d6 da3e
00000270: f4f8 c63f f67f 09bf 5270 863f e2c9 983f
00000280: eedc d9be a372 b73d aecf 283f df74 e03e
00000290: ab9b 3ebf 4810 993e a919 29bf cf24 19bf
000002a0: 9d11 52bf 16f9 c3be ac81 9a3e e1f5 fb3e
000002b0: 1335 e13f 2741 bf3d bd85 263f cf70 4ebf
000002c0: e95f 28bf fb4c 2d3f c5d4 f93e 7408 1abf
000002d0: 78e9 18bf 344b 06bf d905 003d 5b5d 46be
000002e0: 37b0 7fbc bf43 053f 75af de3e 1c84 103f
000002f0: 909e 133d 0cd3 b9be 8edd 133f e7cd 503f
00000300: c2a1 f0be 8478 11bf 3895 053f 241a 043f
00000310: fe64 debe 9da6 393e 5d21 cfbe 4e86 01bf
00000320: 0754 5abf 18f9 f5bf 1637 99bf d913 ea3e
00000330: f23e 4a3f a7c9 b43f ecaa 023f 927b f0be
00000340: f971 07bf 2a67 d83e 3312 103f 0cab 51bf
00000350: 9156 c5be 9d7c debe d4cd 66bf 10f2 5cbf
00000360: 9aa2 62bf 8a8b d6be 3895 313f faf2 ec3e
00000370: 46b2 623f 9bbf c3be 3178 0a3f c524 3740
00000380: 84dc 5b3e b8a9 14bf cceb 86be b6e3 f1be
00000390: 8a14 2e3f b880 42bf 642d d93e 3ab2 6c3e
000003a0: d2b2 cd3e e84b b9be 408b 273e e486 87be
000003b0: d77b f0be 276f 283f fe98 83be 980f 873e
000003c0: 780e 3f3f 72c3 5dbe d4ec 3fbe 1e29 df3e
000003d0: 9edf cb3e c738 963e 948a cc3e d990 c03e
000003e0: ef4f 9e3e 42f9 5c3e 66ed 9fbe a091 ddbe
000003f0: 43a4 a2be a649 853e 3f01 3bbe 38cd 1a3e
0.46528146 -0.3259563 -0.37855688 -0.47574353 0.7476494 -0.55404526 0.3871732 0.5036911
0.18733779 -1.0102502 0.57311 -0.58479786 0.47468355 0.75294083 -0.5098729 0.27150238
0.3939518 -0.55404323 -0.4915831 0.35663214 0.43694574 0.34971282 0.46557108 0.30786932
0.5012234 -0.3453747 -0.543186 -0.5516602 -0.46198165 0.26278913 -0.28191975 0.20966999
-0.5536991 0.48025435 0.3821517 0.8875046 -0.45357057 0.08168605 -0.59312993 -0.65876466
-0.6154473 0.03618506 -0.3446737 0.79651594 0.7795269 -0.48144644 0.80468804 -0.44854304
-0.4003418 0.72755635 0.75127304 -0.7181087 -0.5783895 -0.6509913 -0.52928823 -0.20925279
-0.12868412 0.30477792 0.7851695 0.8757507 0.45544925 -0.5840602 0.31667653 0.31190056
0.4374538 -0.8263354 -0.3710565 -0.47505704 0.5862673 -0.85593814 0.6961519 0.5318518
0.44610423 -0.46175388 0.51041484 -0.36868948 0.25641504 0.7752362 -0.46392143 0.41151717
0.8198183 -0.5846611 -0.37022895 0.48105717 0.2610555 0.50294244 0.34093884 0.61864805
0.35469267 -0.35569003 -0.534082 -0.28196904 -0.40822536 0.34530547 -0.49754363 0.28915444
0.26032197 -0.8056761 -0.37491104 -0.33599865 0.63706726 -0.9543762 0.72369117 0.5417188
0.6024799 -0.7805862 0.71761477 -0.57221216 0.5217192 0.82832766 -0.27481553 0.58666813
0.9016307 -0.57344407 -0.33130506 0.52568454 0.4380879 0.43072706 0.6345003 0.528103
0.4731816 -0.67578036 -0.57602113 -0.34527588 -0.7563076 0.38996905 -0.46112645 0.27240768
-0.34031776 0.36807388 0.51749235 0.51941895 0.35034144 -0.13419607 0.3332466 -0.6225013
-0.28082475 0.15420903 -2.1754756 0.29924992 -0.1547888 -0.6487497 0.5191299 -1.0942386
0.10498768 0.4691352 0.6276657 -0.58121145 -0.51947427 -0.37163827 -2.5505953 -1.7367545
-1.9923924 0.8871916 0.53663224 0.42741552 1.5544724 -0.5371088 1.0503027 1.193661
-0.42551368 0.08957412 0.65941894 0.43839166 -0.7445628 0.29895234 -0.6605478 -0.5982179
-0.82058126 -0.38275975 0.30177057 0.49211028 1.7594322 0.09338599 0.6504782 -0.8064088
-0.6577135 0.6769559 0.48795143 -0.6016915 -0.59731245 -0.524585 0.031255577 -0.1937155
-0.015605978 0.520565 0.43493238 0.5645158 0.03603989 -0.36293828 0.5775994 0.8156418
-0.4699841 -0.5682452 0.52180815 0.5160239 -0.43436426 0.18129964 -0.40455142 -0.5059556
-0.85284466 -1.9216642 -1.1969936 0.45718268 0.79002297 1.412404 0.51042056 -0.46969277
-0.52908283 0.42266208 0.5627777 -0.8190162 -0.38542607 -0.43454447 -0.9015782 -0.8630686
-0.8852936 -0.41903335 0.69368315 0.46279126 0.88553274 -0.3823212 0.5408965 2.8616192
0.21470839 -0.5807147 -0.26351774 -0.47244042 0.6800009 -0.7597766 0.42417443 0.23114863
0.40175492 -0.36190724 0.16361713 -0.264701 -0.46969482 0.65794605 -0.2570266 0.26379085
0.7463145 -0.21656588 -0.18742687 0.43586057 0.39819044 0.29340193 0.39949477 0.3761051
0.3092036 0.2157946 -0.31235808 -0.43275166 -0.31765947 0.26032752 -0.18262194 0.15117347

rnn.bias_ih_l0 f4 [128]
00000000: ee04 00bf ec85 5d3e 1077 ecbe 53f5 3abf
00000010: 9d46 18bf 205c 25be bdf0 43bf 4d64 1ebf
00000020: cec0 33bf ae7d 7a3e 979b 243f eb4c 22bf
00000030: 74b5 1e3f 09f3 123f c4d7 28bf 14b0 d0be
00000040: 629e bfbe cf68 11bf f8d1 b9be 7fad 2abf
00000050: 9443 20bf d73d 19bf 2318 d63e e140 d8bd
00000060: 766f ad3e eec5 03bf 4758 e9be ff4d d5be
00000070: 3e9d c83e e74e 31bf 9fdc 25bf dc58 1f3f
00000080: 0f1d f6be 0ffb 823f 5759 ccbe e143 1bbf
00000090: c7c3 f9be 2c82 3f3f c77a e0be f1e0 24bf
000000a0: e8fd c1be 7457 543f e130 84bf 972b f3be
000000b0: 19e9 fabd 3377 d23e 42fb b0be 9f75 bbbe
000000c0: b1f1 ef3e 4822 1cbf e48b 02bf 847b ccbe
000000d0: 8d4b d7be 7eb8 e7be bfef 88bf 86ad a5be
000000e0: bcb1 52bf 7f88 0cbf c11a 0bbf 186f f9be
000000f0: 1c3d c3be a3dd 19bf cb28 08be 1755 3c3f
00000100: a7e7 193f abb6 4a3f 0626 0bbf 33b2 f9be
00000110: b90a acbe b009 0e3f 0935 8bbd 340c 013f
00000120: 1b4d 29be 9bca 333f 52d3 5cbf 9a01 d7be
00000130: 7cda 3ebf e732 3bbf e0a5 e4be ae77 63be
00000140: 0de7 1abf 6c1b 0cbf b89b eebe 2015 303f
00000150: b832 453f 95d4 f83e 4994 4cbf 1d12 b6be
00000160: a9e5 20bf 2165 2c3f 53eb 13bf 5517 febe
00000170: 4098 0a3f 0792 003f 86cd aa3e 27e9 3cbf
00000180: d258 10bf 5cc3 363d 2335 43bf fa74 d0be
00000190: 94fa 05bf 37b9 42bf 8b3d 50bf d7a7 18bf
000001a0: 9e90 2cbf 9fdc 21be 65dd 103f 9193 02bf
000001b0: 1acc 533f 4e6c a73e 3acf 02bf a1b5 19bf
000001c0: 5ed8 73bf 32b5 e0be 2719 04bf f689 f8be
000001d0: 3509 fdbe 1b39 19bf d622 413f 8d91 32be
000001e0: 5f36 2d3e e17f c1be 091a e1be a2a7 16bf
000001f0: ce7e c73e 76e4 1bbf 9b26 02bf de3a a33e
-0.5000752 0.21633118 -0.46184587 -0.73030585 -0.5948275 -0.16148424 -0.7653921 -0.61871797
-0.7021607 0.24462005 0.6429991 -0.6339862 0.61995625 0.5740209 -0.6595423 -0.40759337
-0.37425524 -0.5680055 -0.36293006 -0.66670984 -0.62603116 -0.59859985 0.4181529 -0.1055925
0.338741 -0.5147389 -0.45575163 -0.4166107 0.39182466 -0.6926102 -0.64789766 0.62244964
-0.48069045 1.0232867 -0.3991191 -0.6065045 -0.4878218 0.74808 -0.43843672 -0.64405733
-0.37889028 0.8294594 -1.0327417 -0.47494194 -0.12251491 0.41106567 -0.34566694 -0.36613175
0.46864083 -0.6098981 -0.50994706 -0.39937985 -0.42049828 -0.45257944 -1.0698165 -0.3235895
-0.8230245 -0.54895777 -0.543377 -0.4871757 -0.3813256 -0.60103816 -0.13296811 0.73567337
0.601191 0.7918498 -0.54354894 -0.48768768 -0.3360193 0.5548353 -0.06797225 0.50409245
-0.1653332 0.70231026 -0.8625995 -0.4199341 -0.7455213 -0.73124546 -0.44657803 -0.22213623
-0.60508806 -0.5472934 -0.4660318 0.68782234 0.77030516 0.48599687 -0.79913765 -0.35560694
-0.62850434 0.6734181 -0.5778095 -0.49627176 0.54138565 0.5022282 0.33359927 -0.7379326
-0.5638553 0.044619903 -0.76252955 -0.40714246 -0.52335477 -0.76063865 -0.8134391 -0.59631103
-0.6740817 -0.15806817 0.5658782 -0.5100642 0.8273331 0.32699817 -0.5109745 -0.6004277
-0.95252025 -0.4388824 -0.5160088 -0.48542756 -0.49421087 -0.5985276 0.7544378 -0.17438336
0.16915272 -0.37792876 -0.43965176 -0.5884954 0.38963932 -0.6089548 -0.5084016 0.3188085

rnn.bias_hh_l0 f4 [128]
00000000: 863b 03bf 0f46 1a3e 884a 11bf 3ff5 07bf
00000010: 4fcf 0fbf 96ba dcbe 4136 52bf ecd9 29bf
00000020: 5293 29bf 5194 063e 21fe f73e ddb1 1fbf
00000030: 8e8f 313f abd6 0f3f 3dc4 28bf f1fb 21bf
00000040: 1b29 98be 73e7 1abf 1e3b 24bf 80bc 15bf
00000050: a0f0 1fbf 1673 26bf 28b5 f13e edc6 aabd
00000060: 5d77 a83e 6c34 f1be 80f7 29bf e4de 1cbf
00000070: 270d ad3e fc16 12bf ee6a 0bbf f202 293f
00000080: 4286 23bf 3c5f 3c3f 5938 1cbf b6e9 0ebf
00000090: 7204 a9be 5a3b 2e3f 8ed6 01bf d7c6 b4be
000000a0: 5b93 13be 29a4 2c3f bb3d 81bf fa02 c8be
000000b0: 933a c9bd 25ea ea3e d8d1 ecbe a898 50be
000000c0: c640 2b3f 266b 27bf 2783 28bf 7401 05bf
000000d0: e750 2ebf ffde 15bf f2b1 39bf 2293 43be
000000e0: 2c69 7bbf aacf f9be 33b5 d4be 51c0 16bf
000000f0: 820c 44be a21f 13bf 0721 9abd 153e 1f3f
00000100: 0d6a 0d3f 1903 223f 799a 1ebf ddf3 02bf
00000110: 3a26 e7be 6bb1 1c3f 5121 b6be 8ddd 2e3f
00000120: 862c d5bc b4c9 223f 7fb0 20bf 27c7 09bf
00000130: 769b 75bf fa6f 4cbf 6c63 2fbf 64d2 e3be
00000140: 448d 0fbf 1bc1 1bbf bce1 26bf 13d5 d43e
00000150: 051d 033f 3903 d93e a860 3cbf 62ce e0be
00000160: 8b25 f9be 05c1 d93e 94e9 10bf d388 1abf
00000170: 112a cb3e 2b02 ee3e e442 ea3e 22e9 41bf
00000180: c13b fdbe 153d 6a3d 6b0e 3ebf d564 0dbf
00000190: ca7a 11bf 89f8 50bf a044 48bf fa20 17bf
000001a0: 4f16 0dbf 2afa 9e3c 3a14 1b3f bcbb c0be
000001b0: 6f54 103f 89c3 fc3d d315 1fbf 8cc5 41bf
000001c0: bac3 6fbf 841b 0fbf 3ce3 39bf b22b 38bf
000001d0: ff09 d1be 4c74 f9be a53d e73e ef4d febd
000001e0: 953e 6d3e 1ca3 9abe 7d5a f7be 0108 20bf
000001f0: cf0f da3e 3559 01bf 2daf cbbe 9374 923d
-0.512627 0.15065788 -0.5675435 -0.5310859 -0.561757 -0.43111104 -0.82114035 -0.6634815
-0.6624042 0.13142516 0.48436072 -0.6238077 0.6935967 0.5618693 -0.65924436 -0.6327506
-0.2971886 -0.60509413 -0.64152706 -0.58490753 -0.6247654 -0.6501936 0.47208524 -0.08338723
0.32903567 -0.47110307 -0.6639328 -0.61277604 0.33799097 -0.5706632 -0.54460037 0.6602012
-0.63876736 0.73582816 -0.6102348 -0.55825365 -0.33011204 0.68059313 -0.5071801 -0.35307953
-0.1441168 0.6743799 -1.0096964 -0.3906477 -0.09825625 0.45881763 -0.46253848 -0.20370734
0.6689571 -0.6539787 -0.6582512 -0.5195534 -0.680922 -0.5854339 -0.7253715 -0.19099095
-0.98207355 -0.48791248 -0.41544494 -0.588872 -0.19145396 -0.5747014 -0.07525831 0.62204105
0.55239946 0.63285977 -0.61954457 -0.51153356 -0.45146352 0.6120822 -0.35572293 0.6830681
-0.026022207 0.63589025 -0.6276931 -0.5381951 -0.9594034 -0.7985836 -0.6851108 -0.44496453
-0.5607493 -0.6084153 -0.65188193 0.41568813 0.51216155 0.4238527 -0.73584986 -0.43907458
-0.48661456 0.42530075 -0.5660641 -0.6036503 0.39680532 0.4648603 0.45754158 -0.7574636
-0.4945965 0.05718716 -0.7424075 -0.5523198 -0.56827986 -0.81629235 -0.78229713 -0.59034693
-0.55112165 0.019406397 0.6057774 -0.3764323 0.56378835 0.12341983 -0.62142676 -0.7569206
-0.9365803 -0.5590136 -0.7261236 -0.71941674 -0.4082794 -0.4872154 0.4516422 -0.124172084
0.23168404 -0.30202568 -0.48311225 -0.62512213 0.42590186 -0.50526744 -0.39782086 0.07151141

rnn.weight_ih_l1 f4 [128, 32]
00000000: 3813 eebe 5003 f7be 3e51 d63e e01c c63e
00000010: 5d27 363f 3a08 0dbf 55a0 9a3f faea 37bf
00000020: b468 833e e75d f6be d898 b2be b9df 8c3e
00000030: 7798 fe3e 8a04 893e 72fc 123f 1364 08bd
00000040: 56c9 373f f3cf d43e 9ae9 f63e f50d 1ebf
00000050: 273c aabe 59a8 08bf 2738 803e 40a2 a13e
00000060: b561 9a3d 6186 343f c2b2 213f 1dd8 f23e
00000070: af07 23be b790 f4be 82e6 14be d0cb 843e
00000080: c3e1 30bf 3ac3 01bf b4aa 273f 803e e83e
00000090: 1062 73bd 6ca2 cfbe 2c89 86bd 6ae9 65bf
000000a0: 05c0 183e fdcb 94be e59d 893e fc8f c23e
000000b0: 5614 d33e e9bc d43e 2d02 123f 0d12 bdbe
000000c0: f1d2 d03d bb83 013f ed22 353f c237 72bf
000000d0: ddd0 2cbf a88b c4be 24f6 f13e 074e 533e
000000e0: c5b5 7a3d 24a0 3a3e 6c8b 143f bfa5 213f
000000f0: 98a6 a7be 93f7 b8be 928e b83d d0dc 003f
00000100: 7eda c73e bd4a 51bf 1824 8bbe cd26 b6be
00000110: c36c 953f 2b18 b6bf feea 5d3f d434 1b3e
00000120: cb3f 333f 4d90 aebf f69a 6f3f 3eef 81be
00000130: acac 163f 54dc 993f 420d e6be 9e04 103f
00000140: 116b 9e3f 9c42 cabe 91f7 0abf 988f a13e
00000150: a965 963e e553 be3e 0c6b 7c3f c89e d73e
00000160: 00ae 4f3f 722e 00bc 2817 06bf a456 97be
00000170: 5659 30bf 6bf1 b13e 178e 0cbf 8807 cd3f
00000180: ab6e cd3e aa6d 0bbf a0e9 05bf 3713 d9be
00000190: 8558 d93e fd2e 1dbf 0100 083f b7f4 b43e
000001a0: 91f5 0e3f b48a babf 31a4 693f e6db 9abe
000001b0: 9a25 0140 1516 a03f 0929 a7be 2d96 f23e
000001c0: 2d81 ea3e e906 babe 71e9 0cbf 2b3e cb3e
000001d0: 2a83 9e3e 3b8a fe3e c7f9 4b3f c256 573f
000001e0: 0c46 863f 8aa5 28bf 04c8 e7be 835e adbe
000001f0: 1103 83bf 961d fb3e df83 10bf b00b 0340
00000200: 5065 fb3e 5ad0 4bbf 55a5 09bf 3577 9bbe
00000210: f38a 913f 4c70 bfbf 27fb 243f a994 e43e
00000220: 23c4 2a3f dbd9 ccbf 8086 683f 36ea 88be
00000230: c7d7 ca3e ff84 b73f bee5 d4be 45bf 0b3f
00000240: e89e ab3f 5b16 a2be 9e0a dabe e1a4 0e3f
00000250: d181 8b3e 22da 013f 62ab 8b3f 48fa 1f3f
00000260: cc20 663f c054 6cbe a43f 14bf 9776 adbe
00000270: ffef 60bf 02a5 153f 7f9b 47bf 0f53 fe3f
00000280: b2df 2a3e 8a23 693f 1078 593e a0b0 2f3d
00000290: 01d7 6b3f fbb8 a4be 8323 a73f c47c 0e3c
000002a0: f6da 0b3f 4231 793f 5388 13c0 736f 25be
000002b0: 3560 a4bf c6a9 babf be89 74be 10a2 0b3f
000002c0: 93c7 403f afc6 3cbd 3fb8 93be 9db9 1d3e
000002d0: 4685 9fbd 6ef1 ddbc b9e6 24c0 3c21 11bf
000002e0: 5011 e2bf a957 103f cdb8 4e3d edea 2abe
000002f0: cacd 803f adab d4bd 2af9 3d3e 77c5 ebbf
00000300: 13fc 003f 376a 54bf c698 11bf c83b c5be
00000310: b83d 8d3f 1f0f a7bf 28ce 323f 32e0 b93e
00000320: d0f9 423f b881 c1bf d944 913f 1906 9bbe
00000330: 29a5 f23e ddba ad3f efdb 07bf 9429 403f
00000340: fb6c a03f baa1 91be ab0d abbe 6377 9c3e
00000350: 8788 0e3f f187 1b3f d993 7a3f 78a2 e43e
00000360: ab09 643f e978 38be 8d54 d1be d71c 07bf
00000370: 9eb6 43bf 24e5 eb3e c7ff 42bf ba6c ef3f
00000380: 73f0 abbe 4266 09bd 19fb 4d3e c64e 953e
00000390: 8d79 0abd 05aa 1cbf a865 333d 2c50 97be
000003a0: 2e87 413d ac9a 61bf 668d bcbf f92d d33e
000003b0: 298b 983f b737 e6be a8fd e33e 6761 673e
000003c0: 603b ca3e 63c2 cd3e 844c 013f e3c0 21bf
000003d0: 6de5 e5be 4e05 9bbd 6c47 07bf 77bd 83be
000003e0: 559b 39bf 3a27 4b3f 79a9 003f 60a6 8d3e
000003f0: 540e e83e b336 c1be 573a 573d 44de 253f
-0.46499038 -0.48244715 0.41858858 0.38693905 0.71153814 -0.5509068 1.208018 -0.7184292
0.2566582 -0.48118517 -0.34882236 0.27514437 0.49725696 0.26761276 0.5741645 -0.033298563
0.7179159 0.41564903 0.482251 -0.61740047 -0.33249018 -0.5338188 0.2504284 0.315691
0.075381674 0.70517546 0.6316339 0.47430506 -0.159209 -0.4776666 -0.14541057 0.25936747
-0.69094485 -0.5068852 0.6549485 0.45360184 -0.05941969 -0.40553606 -0.06569132 -0.89809287
0.14917 -0.2906188 0.26878276 0.38000476 0.41226453 0.41550377 0.5703457 -0.36927834
0.10196484 0.5059163 0.7075642 -0.9461633 -0.675062 -0.383878 0.47258103 0.20635234
0.061208505 0.18225151 0.5802524 0.63143533 -0.32744288 -0.36126384 0.09011568 0.50336933
0.39033884 -0.81754667 -0.27175975 -0.35576478 1.1673816 -1.4226125 0.86686695 0.15156871
0.70019215 -1.3637787 0.93595827 -0.2537784 0.58857226 1.2020364 -0.4493199 0.56257045
1.2376424 -0.39503944 -0.54284006 0.31554866 0.29374436 0.3717338 0.9860084 0.42113328
0.8112488 -0.007823573 -0.52379084 -0.2955829 -0.68886316 0.347545 -0.5490431 1.6017923
0.40123495 -0.5446421 -0.5230961 -0.42397472 0.42450348 -0.61399823 0.53125006 0.35342953
0.55843455 -1.4573579 0.9126616 -0.30245894 2.01792 1.2506739 -0.32648495 0.473802
0.45801678 -0.36333397 -0.55043703 0.39695868 0.30959445 0.49714836 0.79678005 0.84116757
1.0490127 -0.6587759 -0.45269787 -0.3386117 -1.0235311 0.4904601 -0.5645122 2.0475883
0.49100733 -0.79614794 -0.537679 -0.30364385 1.1370529 -1.4956145 0.6444573 0.4464467
0.6670553 -1.6003984 0.9083023 -0.2674119 0.3961775 1.4337462 -0.4158153 0.5458873
1.3407869 -0.3165768 -0.42586225 0.55720335 0.2724748 0.5072347 1.0911677 0.62491274
0.89893794 -0.23079205 -0.5790961 -0.3387954 -0.87866205 0.58454907 -0.77971643 1.9869097
0.16686895 0.91069853 0.21237206 0.042893052 0.92124945 -0.3217238 1.3057712 0.008696739
0.5463098 0.97340786 -2.3051956 -0.16155796 -1.284186 -1.4583061 -0.2388067 0.5454416
0.75304526 -0.046087917 -0.28851506 0.15402837 -0.07789092 -0.027092662 -2.5765822 -0.56691337
-1.7661533 0.5638376 0.05046921 -0.1669118 1.0062802 -0.10384307 0.1855208 -1.8419636
0.50384635 -0.8297457 -0.5687374 -0.38522172 1.103446 -1.305149 0.6984582 0.3630386
0.76162434 -1.5117712 1.1349136 -0.3027809 0.47391632 1.3572651 -0.5306997 0.75063443
1.2533258 -0.284437 -0.33408865 0.30559835 0.55677074 0.60754305 0.9788185 0.44655204
0.8907725 -0.18014874 -0.4088482 -0.5277838 -0.76450527 0.46073258 -0.76171535 1.8705056
-0.33581886 -0.033544786 0.20115317 0.29161662 -0.033807326 -0.6119693 0.04379812 -0.29553354
0.047248058 -0.88126636 -1.4730651 0.41246012 1.1917468 -0.44964382 0.44529462 0.2259575
0.39498425 0.40187368 0.5050738 -0.63184947 -0.449016 -0.07569371 -0.52843356 -0.25730488
-0.7250264 0.7935673 0.50258595 0.27665997 0.45323431 -0.37737045 0.05254587 0.64792275

rnn.weight_hh_l1 f4 [128, 32]
00000000: f4fd 613f f4e5 de3e 992e d63e aff5 76be
00000010: 17cc 99be 1243 87bf 16b9 05bf 2ea4 7bbf
00000020: 7a4c b53e 3f0b 6e3f bb72 7abf 2e09 53bf
00000030: a0dc 0bbf 6bd3 f6be a5ff 143f c7ff 87bf
00000040: 49ca 453f 114a c33e 018d 383f d652 013f
00000050: 63da 713e d5d8 ea3e 8947 d33e 8ba0 7dbf
00000060: 24c4 723f 4550 913e b673 e0be 65ad 943e
00000070: 551b d63e 57fb 89be 8441 1c3d 3f6e df3e
00000080: 6fd0 8b3f 4a98 da3e d2af 7e3e 49ed 82be
00000090: bd72 2fbe 2fe7 5bbf 6fbf 90bc 9fd1 b6bf
000000a0: f151 773e d162 993f bdd1 7cbf 4fc1 8fbf
000000b0: 8994 003f b4d1 1abf cf51 16bd f165 a7bf
000000c0: e538 333f 1085 fe3d 41b7 ae3e c7f6 503d
000000d0: 6dba 023e 75d4 4a3e deee 883f 0df6 10bf
000000e0: 60e7 a53f 7409 4b3d 8bca 23bf dbef d73d
000000f0: 64c0 923f 0c11 6bbe 269c f4be e4ad a53f
00000100: 85a9 41be 5f7e 20bf 3417 f0be 6238 da3e
00000110: e6af 093f 8f97 75be 0530 e03e c843 0a3f
00000120: 4fbe c0be 3e7a b2be 9a59 283e 3bb9 c23e
00000130: b69b 2d3f b267 0e3f 3bea 15bf b27b 2a3f
00000140: d0bf 09bf c7a6 dfbe 5850 d9be b2a5 87be
00000150: c6e4 d1be 143d e4be c035 a6be 08c7 123f
00000160: 0d3a 08bf 10f0 0fbf 6f70 fb3d ca5e dcbe
00000170: f813 22bf 8a0e ec3e a3f2 70bf 17ca 1ebf
00000180: 1714 1cbf e8f9 15bf d5a2 c4be 34c1 153f
00000190: 0cd9 f13e f3fb b13e cff6 b53e 9a69 2f3f
000001a0: dff8 dbbe b66d 07bf a1da 2a3f b1c6 3c3f
000001b0: 608f 393f d740 413f c66c 51bf 8ed3 2d3f
000001c0: 8057 0abf 543a e0be 1339 c8be c96e cabe
000001d0: 984f fabe ed19 bbbe 2c03 0dbf 5d67 773f
000001e0: d637 2ebf 8b67 17bf 7458 c63e 0100 95be
000001f0: 0555 53bf 1a22 0f3f cb39 51bf a8fc 17bf
00000200: dcd7 4fbe 2c18 d7be 64fb bfbe e573 ab3e
00000210: 6a36 b53e 7415 783e 8047 083f 4494 443f
00000220: 9622 99be 9afc 99be c5d1 5a3e 504d ee3e
00000230: 764c 203f b24f 083f 8f28 29bf e393 4d3f
00000240: ca95 eabe ea99 d8be 176f e0be 15f7 f9be
00000250: 2f91 babe ba3d 0fbf 43db 25bf 3cf2 373f
00000260: 26b2 23bf 65f0 8abe d5cd 033f caa6 a1be
00000270: 5848 22bf 1c53 bd3e ab42 52bf 2304 22bf
00000280: 61b1 843d ac1b 9e3e 7684 f23e 8e95 c63c
00000290: a693 a3be a536 89bf 7ade 8cbe dd4d 06bf
000002a0: b920 2e3e 2dfd dd3e 4ee8 a6be 8747 58be
000002b0: 0cbc 52bf 9574 24bf 96b8 783f 2f52 0ebf
000002c0: 7ad1 193f 2f3e 223f 8123 d03e fbe7 0a3f
000002d0: d16c ad3e 7226 e03e 54dc 92be a6b2 c8bf
000002e0: be79 883e d4d4 733e d5a8 01bf dbcf a93e
000002f0: 4320 15bd ce77 bbbe 17b1 e23e 1325 c8bd
00000300: d0af cbbe a2e4 f2be 3a53 10bf 85e7 953e
00000310: 11e4 bd3e bb34 083f 5640 113f 432b 303f
00000320: 820a bfbe 601f 0bbf 4f43 b93e 1ff5 1e3f
00000330: a7b0 053f 99d9 133f c3d8 03bf 72b3 523f
00000340: 271d 00bf dfb0 9abe ad67 c4be 303d fdbe
00000350: e9ad 86be fd6e fcbe 44d5 23bf 1bcd 3e3f
00000360: e69b 24bf 0e76 08bf d9d7 343f 99ff 93be
00000370: 8bea 35bf fb9f 0a3f 359a 5dbf c285 03bf
00000380: 9666 5e3f fae1 6a3f ce01 0d3f efa2 e8be
00000390: b054 00bf 6b90 13bf b2b5 afbe ba03 7cbe
000003a0: ec72 eb3e 88bf f23e c999 ebbe 0e53 c8be
000003b0: 9715 91bc c9ff a3be b78b 88bc 5cbf 88bd
000003c0: 9f90 9f3e a1ea e53e e985 1d3f c83f ad3e
000003d0: 8f23 d33e 1770 a73e 9bd4 273e 67e0 11bf
000003e0: dc50 5f3e be18 bd3e 752a 51bd a27e 213f
000003f0: 5126 f33c 5aeb f9be 7d2c bebe 5ae3 26bd
0.88278127 0.43534815 0.41832426 -0.24117158 -0.3003852 -1.0567343 -0.52235544 -0.98297393
0.3540991 0.9298591 -0.97831315 -0.8243588 -0.5463352 -0.48208174 0.5820258 -1.0624932
0.7726179 0.38142446 0.72090155 0.5051702 0.23618464 0.45868555 0.41265514 -0.99073094
0.94830537 0.28381553 -0.4383828 0.2903854 0.41817728 -0.2694957 0.038148418 0.436388
1.0922984 0.42694312 0.24871758 -0.2557166 -0.17133613 -0.85899633 -0.017669408 -1.4282721
0.24152352 1.1983281 -0.98757535 -1.1230868 0.50226647 -0.6047623 -0.036699113 -1.3077985
0.7000869 0.124277234 0.34124187 0.051016595 0.12766428 0.19807608 1.0697896 -0.56625444
1.2961235 0.049569562 -0.6398093 0.10543796 1.1464963 -0.22955722 -0.47775382 1.2943692
-0.18912323 -0.62692827 -0.46892703 0.42621142 0.53784025 -0.23983596 0.43786636 0.54009676
-0.37645194 -0.34858888 0.1644043 0.38031945 0.6781572 0.55626976 -0.5856053 0.66594994
-0.5380831 -0.4368193 -0.4244411 -0.26493603 -0.40994853 -0.4457785 -0.32462883 0.5733495
-0.5321358 -0.5622568 0.122773044 -0.43041068 -0.6331172 0.46104842 -0.94120234 -0.62027115
-0.60968155 -0.5858445 -0.3840548 0.5849793 0.47235906 0.34762534 0.35539863 0.6852051
-0.4296331 -0.5290178 0.6673985 0.7374068 0.724844 0.7548956 -0.818066 0.6790093
-0.54039764 -0.437945 -0.39106044 -0.39537647 -0.4888885 -0.36543217 -0.55082965 0.96642095
-0.6805395 -0.5914237 0.3873936 -0.29101565 -0.82551605 0.5591141 -0.8172881 -0.593699
-0.20297188 -0.4201063 -0.37496483 0.33486858 0.35393077 0.24226934 0.532341 0.76788735
-0.299092 -0.30075532 0.21369083 0.4654336 0.6261667 0.53246605 -0.6607751 0.8030378
-0.45817405 -0.42304927 -0.43834755 -0.4882132 -0.3643889 -0.5595356 -0.6478769 0.71853995
-0.6394371 -0.2713653 0.5148595 -0.31572562 -0.6339164 0.3697747 -0.8213298 -0.6328756
0.06479145 0.30880487 0.47366685 0.024241235 -0.31948584 -1.0719801 -0.27513486 -0.5246256
0.1700467 0.4335722 -0.3259911 -0.21121036 -0.82318187 -0.6424039 0.97156656 -0.5559415
0.6008526 0.63376135 0.40652087 0.54260224 0.33872083 0.4377933 -0.28683722 -1.5679519
0.26655382 0.23811656 -0.5064824 0.33166394 -0.03640772 -0.3661484 0.44275734 -0.09772696
-0.39782572 -0.47440058 -0.56376994 0.29278198 0.37088063 0.5320546 0.56738794 0.6881601
-0.37312704 -0.5434475 0.36184165 0.62092775 0.52222675 0.577539 -0.5150263 0.8230506
-0.5004448 -0.30213067 -0.38360348 -0.49460745 -0.26304558 -0.49303427 -0.6399729 0.74531716
-0.6430038 -0.5330514 0.7064186 -0.28905943 -0.7106101 0.5415036 -0.86563426 -0.51375973
0.86875284 0.9175106 0.5508088 -0.45436808 -0.5012922 -0.5764224 -0.3431831 -0.24610797
0.45986116 0.47411752 -0.46015766 -0.39125866 -0.01771049 -0.32031086 -0.016668184 -0.06677124
0.31165025 0.4490557 0.61532456 0.33837724 0.41238067 0.32702705 0.16389696 -0.56983036
0.21808189 0.3693294 -0.05106588 0.6308385 0.029681357 -0.48812371 -0.37143317 -0.040744163

rnn.bias_ih_l1 f4 [128]
00000000: c67b dfbe ae1c 29bf c951 48bf a63e 1abf
00000010: bf0e 43bf db56 2a3f bd67 18bf 87c8 6bbc
00000020: 5b27 02bf b383 fabd 3688 20be 1239 5fbe
00000030: 9ca1 d8be aec9 8ebe 0b7d 83be 98ea 8f3e
00000040: 6151 62be a530 3abf 73c3 25bf 5106 03bf
00000050: 4676 27bf 2cf0 59bf 7e85 55bf c348 893f
00000060: d262 d63d 9ba0 3bbf 2955 20bf f8ca 50bf
00000070: 99d6 80be e319 20bf 6d84 e4be aa98 00bf
00000080: f034 b2be 8508 3cbf d17a 13bf f839 11bf
00000090: 13d9 03bf 3018 44bf 90c8 2abf 2011 15bf
000000a0: abb8 cdbe d0e9 a83a 0890 c3be 62b3 cebe
000000b0: 62d8 41bf 65d1 0bbf c2a7 2fbf cde8 02bf
000000c0: a200 07be 8de7 1cbf 37dd e1be d1fa 40bf
000000d0: 0cca e4be 6e2d 37bf f58b 87bf 649a 30bf
000000e0: 245e efbe b754 f2be 8bcc 07bf 8934 15bf
000000f0: 8a1c 16bf 4dbf b6be 4267 46be c6a6 37bf
00000100: 9b1e f8bd 99e0 10bb e289 81be 6016 713d
00000110: 93b1 723e 6e60 29bf 9848 883e 52ae 4f3e
00000120: d77c a4be 7f55 a23d cf05 ad3e b48b b63d
00000130: 4e27 c7bd 54a7 09bf d338 0d3e 0fd7 aabe
00000140: 2692 cf3e 2379 1dbf 1eb1 b5be 1ed0 79be
00000150: 9004 a0be 5cb2 d6be 27ff 023f 1a76 26bf
00000160: 1854 53be 3bce 7dbe acf8 40be ef16 81be
00000170: 7f2e aa3e 7fcf 7a3e 67a4 153f 3d79 8c3e
00000180: eb52 0bbf 4f20 7dbf 684b 0ebf c24e c6be
00000190: 04cc d6be 21c4 a9be d4bf dcbe b6cf 9abe
000001a0: 2548 40bf c2ea 533d fbff debe 4ccd 243d
000001b0: dd8d 46bf adcd 14bf cb51 7dbf c63f 1abf
000001c0: 3440 68be ca8c 12bf 98a5 2cbf b288 d7be
000001d0: d85c 06bf 51e1 06bf 2cc7 44bf 26b8 433f
000001e0: 9ff0 66be e939 eebe eddb 38bf 051f 22bf
000001f0: eb27 d4be b12d 03bf 8a5b 20bf 449d 16bf
-0.4364912 -0.66059387 -0.78249794 -0.60251844 -0.76194376 0.6653878 -0.5953329 -0.014391071
-0.508413 -0.12232151 -0.1567696 -0.21799114 -0.42310798 -0.27888244 -0.25681338 0.28108668
-0.22101356 -0.72730476 -0.64751357 -0.51181513 -0.65414846 -0.851321 -0.8340682 1.072533
0.10468067 -0.7329194 -0.62629944 -0.81559706 -0.25163725 -0.625395 -0.44632283 -0.50232947
-0.34806013 -0.734505 -0.5760928 -0.5672908 -0.51503104 -0.7659941 -0.66712284 -0.58229256
-0.40179953 0.0012887064 -0.38195825 -0.40371233 -0.757208 -0.54616386 -0.68615353 -0.51136476
-0.13183835 -0.6129082 -0.44114086 -0.75382715 -0.446854 -0.71553695 -1.0589586 -0.6898558
-0.4675151 -0.47330257 -0.5304648 -0.5828329 -0.586373 -0.35692826 -0.19375327 -0.7173885
-0.121152125 -0.0022106527 -0.2530051 0.05885923 0.23700552 -0.66162765 0.26617885 0.20281342
-0.32126495 0.07926463 0.33793494 0.08913365 -0.09724294 -0.5377095 0.13791208 -0.33367202
0.4054119 -0.61512965 -0.35486692 -0.24395797 -0.3125348 -0.41932952 0.5117058 -0.6502396
-0.20637548 -0.24785702 -0.18844861 -0.2521281 0.332386 0.24493216 0.58453983 0.27436247
-0.544234 -0.98877424 -0.5558381 -0.38731962 -0.41952527 -0.33157447 -0.43115103 -0.30236596
-0.75110084 0.051737554 -0.43554673 0.04023485 -0.77560216 -0.58126336 -0.9895293 -0.6025356
-0.22680742 -0.5724608 -0.67440176 -0.42096478 -0.5248542 -0.52687556 -0.7686641 0.76452863
-0.22552727 -0.46528557 -0.7221058 -0.6332858 -0.41436705 -0.51241595 -0.6263968 -0.5883372

rnn.bias_hh_l1 f4 [128]
00000000: 9486 dcbe 2366 21bf 203d 38bf eb6c 0dbf
00000010: 6d3b 1cbf c2e6 5e3f b255 0ebf 00d8 15be
00000020: bff9 04bf d7c8 95be 2060 94be 30cd 863d
00000030: 5d8d 39bf 2b9c 00bc 96ed 9dbe e22b e63e
00000040: 3bd5 4bbe a830 08bf d409 33bf c616 f2be
00000050: 68e1 10bf eed9 0bbf 6a80 64bf 6631 923f
00000060: f270 5e3e c1ac 33bf 03df f5be abcf 2abf
00000070: 913e aebe 21c9 17bf dac4 4ebe 0ebb 01bf
00000080: 9b61 d7be b712 64bf 66d4 ffbe 60b2 0abf
00000090: 37a5 bebe 0a24 4bbf bafc f3be 65b7 eebe
000000a0: 262f 2cbf 231c 87be f04a a1be 7bd4 b8be
000000b0: a2c7 2fbf 0828 36bf fb30 3cbf 40b9 afbe
000000c0: e32e 3ebe 552d 02bf 0fbc 06bf d550 d6be
000000d0: 27cf 0ebf c755 dabe 97e4 88bf 050d 41bf
000000e0: 6080 9cbe e21a aabe 1cc4 c5be c05a e5be
000000f0: 44eb 43bf 9df4 05bf 9b62 bdbe d525 1cbf
00000100: 6b59 153d 0930 0e3d 2388 dabe 3d4e fa3d
00000110: ed25 473e e566 1abf da19 9e3e 0322 ae3c
00000120: 063c b6be 2650 1fbe e98e 923e b898 f7bd
00000130: ec4c d9bd f87a 2abf 7190 f73d e428 6bbe
00000140: 48e6 803e 13a4 0dbf 3e39 2ebf 7af8 bdbe
00000150: 3b31 65be b684 c0be 11bd 093f b7ce 49bf
00000160: f903 173d c11d d1be 4549 84be fc44 0ebf
00000170: 7622 a93e aa82 c63e a499 263f a600 cd3e
00000180: a2e4 3cbf 49c5 75bf 04c7 09bf 8eca c0be
00000190: ce6a 0bbf 1087 5bbe 8c9e 15bf 2d15 e7bd
000001a0: dd73 2bbf 0490 8cbd ceb1 03bf da4c ea3d
000001b0: 4e77 37bf c7ea 09bf b408 65bf 88f2 08bf
000001c0: aafc 09be a364 37bf 9fe9 2fbf 6f74 05bf
000001d0: 7180 f0be 1552 f8be 5164 29bf cce0 333f
000001e0: d6ec 40be 214a 2ebf bf97 e8be 0867 09bf
000001f0: fb6f b4be 1fd6 14bf 0aaa 37bf 080e 1abf
-0.43071425 -0.63046473 -0.7196827 -0.5524432 -0.61028177 0.8707086 -0.5559951 -0.14633179
-0.5194358 -0.2925479 -0.28979588 0.06582105 -0.7248133 -0.007849733 -0.30845326 0.44955355
-0.1990556 -0.53199244 -0.6993687 -0.47283 -0.5659394 -0.5462941 -0.89258444 1.1421325
0.21722773 -0.70185477 -0.48021707 -0.66723126 -0.3403211 -0.59291273 -0.2019228 -0.5067605
-0.42066655 -0.89091057 -0.49966735 -0.5417843 -0.37235424 -0.79351866 -0.47653753 -0.46624294
-0.6725944 -0.26388654 -0.31502485 -0.3609961 -0.6866399 -0.7115483 -0.7351224 -0.34321022
-0.18572573 -0.5085042 -0.52630705 -0.41858545 -0.5578484 -0.42643568 -1.069476 -0.7541049
-0.30566692 -0.33223635 -0.38626182 -0.447958 -0.7653086 -0.52326375 -0.36989293 -0.6099523
0.03646223 0.03471378 -0.4268199 0.12221954 0.19448061 -0.60313255 0.30879098 0.021256452
-0.3559267 -0.15557918 0.28624657 -0.12089676 -0.10610375 -0.66593885 0.12088097 -0.22964817
0.2517569 -0.5532848 -0.68056095 -0.37103635 -0.22382061 -0.3760125 0.5380412 -0.78831047
0.036869023 -0.40843013 -0.2583715 -0.5557401 0.33034104 0.38771564 0.65078187 0.40039557
-0.73786366 -0.9600416 -0.538193 -0.37654537 -0.54459846 -0.21438241 -0.5844505 -0.11283336
-0.6697367 -0.06863406 -0.51443183 0.114404395 -0.7166642 -0.53873867 -0.89466405 -0.53495073
-0.1347529 -0.71637934 -0.6871585 -0.5213079 -0.46972993 -0.48500124 -0.66168696 0.7026489
-0.18840346 -0.6808186 -0.45428273 -0.5367284 -0.35241684 -0.5813922 -0.71743834 -0.6017766

out.weight f4 [1, 32]
00000000: 8df8 87bc 3b13 d7bd 58c8 8c3e b24c 67be
00000010: a998 85be ec3c a5be 2bbf 89be f576 643e
00000020: 1d83 963e 0d93 29be 0dcb 1f3e 1330 c83d
00000030: cb8e d13d ae51 57be 3fa2 17bd 6163 be3d
00000040: 0343 cebd d00c be3e c97f bc3e 2906 8c3e
00000050: bdef 7a3e 17da a03e 4b1c 7d3e 0579 b4be
00000060: 7c97 84be 9e3e 8d3e 6822 d23d d32f 9f3e
00000070: eccf e33c f476 83be 740e c93d fb0e cb3d
-0.01659801 -0.10501715 0.274966 -0.2258785 -0.26093033 -0.32273042 -0.26903662 0.22311004
0.29396906 -0.16560002 0.15604801 0.097747944 0.10232314 -0.21027252 -0.037019964 0.09296299
-0.10071375 0.3711915 0.36816242 0.2734845 0.24505515 0.3141639 0.24717824 -0.3524858
-0.25896823 0.27586836 0.10260469 0.31091174 0.027809106 -0.25676692 0.0981721 0.09914967
